…
er': 0.0, 'no_mask_overlap': False, 'mask_min_space': 1, 'mask_channel_length': 10, 'mask_channel_prob': 0.0, 'mask_channel_selection': 'static', 'mask_channel_other': 0.0, 'no_mask_channel_overlap': False, 'mask_channel_min_space': 1, 'conv_pos': 128, 'conv_pos_groups': 16, 'relative_position_embedding': True, 'num_buckets': 320, 'max_distance': 800, 'gru_rel_pos': True}
[ INFO : 2024-09-26 00:10:44,234 ] - speaker_model size: 324060505
[ INFO : 2024-09-26 00:10:44,278 ] - ECAPA_TDNN(
[ INFO : 2024-09-26 00:10:44,279 ] -   (layer1): Conv1dReluBn(
[ INFO : 2024-09-26 00:10:44,279 ] -     (conv): Conv1d(1024, 512, kernel_size=(5,), stride=(1,), padding=(2,))
[ INFO : 2024-09-26 00:10:44,279 ] -     (bn): BatchNorm1d(512, eps=1e-05, momentum=0.1, affine=True, track_running_stats=True)
[ INFO : 2024-09-26 00:10:44,279 ] -   )
[ INFO : 2024-09-26 00:10:44,279 ] -   (layer2): SE_Res2Block(
[ INFO : 2024-09-26 00:10:44,279 ] -     (se_res2block): Sequential(
[ INFO : 2024-09-26 00:10:44,279 ] -       (0): Conv1dReluBn(
[ INFO : 2024-09-26 00:10:44,279 ] -         (conv): Conv1d(512, 512, kernel_size=(1,), stride=(1,))
[ INFO : 2024-09-26 00:10:44,279 ] -         (bn): BatchNorm1d(512, eps=1e-05, momentum=0.1, affine=True, track_running_stats=True)
[ INFO : 2024-09-26 00:10:44,279 ] -       )
[ INFO : 2024-09-26 00:10:44,279 ] -       (1): Res2Conv1dReluBn(
[ INFO : 2024-09-26 00:10:44,279 ] -         (convs): ModuleList(
[ INFO : 2024-09-26 00:10:44,279 ] -           (0): Conv1d(64, 64, kernel_size=(3,), stride=(1,), padding=(2,), dilation=(2,))
[ INFO : 2024-09-26 00:10:44,279 ] -           (1): Conv1d(64, 64, kernel_size=(3,), stride=(1,), padding=(2,), dilation=(2,))
[ INFO : 2024-09-26 00:10:44,279 ] -           (2): Conv1d(64, 64, kernel_size=(3,), stride=(1,), padding=(2,), dilation=(2,))
[ INFO : 2024-09-26 00:10:44,279 ] -           (3): Conv1d(64, 64, kernel_size=(3,), stride=(1,), padding=(2,), dilation=(2,))
[ INFO : 2024-09-26 00:10:44,279 ] -           (4): Conv1d(64, 64, kernel_size=(3,), stride=(1,), padding=(2,), dilation=(2,))
[ INFO : 2024-09-26 00:10:44,279 ] -           (5): Conv1d(64, 64, kernel_size=(3,), stride=(1,), padding=(2,), dilation=(2,))
[ INFO : 2024-09-26 00:10:44,280 ] -           (6): Conv1d(64, 64, kernel_size=(3,), stride=(1,), padding=(2,), dilation=(2,))
[ INFO : 2024-09-26 00:10:44,280 ] -         )
[ INFO : 2024-09-26 00:10:44,280 ] -         (bns): ModuleList(
[ INFO : 2024-09-26 00:10:44,280 ] -           (0): BatchNorm1d(64, eps=1e-05, momentum=0.1, affine=True, track_running_stats=True)
[ INFO : 2024-09-26 00:10:44,280 ] -           (1): BatchNorm1d(64, eps=1e-05, momentum=0.1, affine=True, track_running_stats=True)
[ INFO : 2024-09-26 00:10:44,280 ] -           (2): BatchNorm1d(64, eps=1e-05, momentum=0.1, affine=True, track_running_stats=True)
[ INFO : 2024-09-26 00:10:44,280 ] -           (3): BatchNorm1d(64, eps=1e-05, momentum=0.1, affine=True, track_running_stats=True)
[ INFO : 2024-09-26 00:10:44,280 ] -           (4): BatchNorm1d(64, eps=1e-05, momentum=0.1, affine=True, track_running_stats=True)
[ INFO : 2024-09-26 00:10:44,280 ] -           (5): BatchNorm1d(64, eps=1e-05, momentum=0.1, affine=True, track_running_stats=True)
[ INFO : 2024-09-26 00:10:44,280 ] -           (6): BatchNorm1d(64, eps=1e-05, momentum=0.1, affine=True, track_running_stats=True)
[ INFO : 2024-09-26 00:10:44,280 ] -         )
[ INFO : 2024-09-26 00:10:44,280 ] -       )
[ INFO : 2024-09-26 00:10:44,280 ] -       (2): Conv1dReluBn(
[ INFO : 2024-09-26 00:10:44,280 ] -         (conv): Conv1d(512, 512, kernel_size=(1,), stride=(1,))
[ INFO : 2024-09-26 00:10:44,280 ] -         (bn): BatchNorm1d(512, eps=1e-05, momentum=0.1, affine=True, track_running_stats=True)
[ INFO : 2024-09-26 00:10:44,280 ] -       )
[ INFO : 2024-09-26 00:10:44,280 ] -       (3): SE_Connect(
[ INFO : 2024-09-26 00:10:44,280 ] -         (linear1): Linear(in_features=512, out_features=128, bias=True)
[ INFO : 2024-09-26 00:10:44,280 ] -         (linear2): Linear(in_features=128, out_features=512, bias=True)
[ INFO : 2024-09-26 00:10:44,281 ] -       )
[ INFO : 2024-09-26 00:10:44,281 ] -     )
[ INFO : 2024-09-26 00:10:44,281 ] -   )
[ INFO : 2024-09-26 00:10:44,281 ] -   (layer3): SE_Res2Block(
[ INFO : 2024-09-26 00:10:44,281 ] -     (se_res2block): Sequential(
[ INFO : 2024-09-26 00:10:44,281 ] -       (0): Conv1dReluBn(
[ INFO : 2024-09-26 00:10:44,281 ] -         (conv): Conv1d(512, 512, kernel_size=(1,), stride=(1,))
[ INFO : 2024-09-26 00:10:44,281 ] -         (bn): BatchNorm1d(512, eps=1e-05, momentum=0.1, affine=True, track_running_stats=True)
[ INFO : 2024-09-26 00:10:44,281 ] -       )
[ INFO : 2024-09-26 00:10:44,281 ] -       (1): Res2Conv1dReluBn(
[ INFO : 2024-09-26 00:10:44,281 ] -         (convs): ModuleList(
[ INFO : 2024-09-26 00:10:44,281 ] -           (0): Conv1d(64, 64, kernel_size=(3,), stride=(1,), padding=(3,), dilation=(3,))
[ INFO : 2024-09-26 00:10:44,281 ] -           (1): Conv1d(64, 64, kernel_size=(3,), stride=(1,), padding=(3,), dilation=(3,))
[ INFO : 2024-09-26 00:10:44,281 ] -           (2): Conv1d(64, 64, kernel_size=(3,), stride=(1,), padding=(3,), dilation=(3,))
[ INFO : 2024-09-26 00:10:44,281 ] -           (3): Conv1d(64, 64, kernel_size=(3,), stride=(1,), padding=(3,), dilation=(3,))
[ INFO : 2024-09-26 00:10:44,281 ] -           (4): Conv1d(64, 64, kernel_size=(3,), stride=(1,), padding=(3,), dilation=(3,))
[ INFO : 2024-09-26 00:10:44,281 ] -           (5): Conv1d(64, 64, kernel_size=(3,), stride=(1,), padding=(3,), dilation=(3,))
[ INFO : 2024-09-26 00:10:44,281 ] -           (6): Conv1d(64, 64, kernel_size=(3,), stride=(1,), padding=(3,), dilation=(3,))
[ INFO : 2024-09-26 00:10:44,281 ] -         )
[ INFO : 2024-09-26 00:10:44,282 ] -         (bns): ModuleList(
[ INFO : 2024-09-26 00:10:44,282 ] -           (0): BatchNorm1d(64, eps=1e-05, momentum=0.1, affine=True, track_running_stats=True)
[ INFO : 2024-09-26 00:10:44,282 ] -           (1): BatchNorm1d(64, eps=1e-05, momentum=0.1, affine=True, track_running_stats=True)
[ INFO : 2024-09-26 00:10:44,282 ] -           (2): BatchNorm1d(64, eps=1e-05, momentum=0.1, affine=True, track_running_stats=True)
[ INFO : 2024-09-26 00:10:44,282 ] -           (3): BatchNorm1d(64, eps=1e-05, momentum=0.1, affine=True, track_running_stats=True)
[ INFO : 2024-09-26 00:10:44,282 ] -           (4): BatchNorm1d(64, eps=1e-05, momentum=0.1, affine=True, track_running_stats=True)
[ INFO : 2024-09-26 00:10:44,282 ] -           (5): BatchNorm1d(64, eps=1e-05, momentum=0.1, affine=True, track_running_stats=True)
[ INFO : 2024-09-26 00:10:44,282 ] -           (6): BatchNorm1d(64, eps=1e-05, momentum=0.1, affine=True, track_running_stats=True)
[ INFO : 2024-09-26 00:10:44,282 ] -         )
[ INFO : 2024-09-26 00:10:44,282 ] -       )
[ INFO : 2024-09-26 00:10:44,282 ] -       (2): Conv1dReluBn(
[ INFO : 2024-09-26 00:10:44,282 ] -         (conv): Conv1d(512, 512, kernel_size=(1,), stride=(1,))
[ INFO : 2024-09-26 00:10:44,282 ] -         (bn): BatchNorm1d(512, eps=1e-05, momentum=0.1, affine=True, track_running_stats=True)
[ INFO : 2024-09-26 00:10:44,282 ] -       )
[ INFO : 2024-09-26 00:10:44,282 ] -       (3): SE_Connect(
[ INFO : 2024-09-26 00:10:44,282 ] -         (linear1): Linear(in_features=512, out_features=128, bias=True)
[ INFO : 2024-09-26 00:10:44,282 ] -         (linear2): Linear(in_features=128, out_features=512, bias=True)
[ INFO : 2024-09-26 00:10:44,282 ] -       )
[ INFO : 2024-09-26 00:10:44,282 ] -     )
[ INFO : 2024-09-26 00:10:44,283 ] -   )
[ INFO : 2024-09-26 00:10:44,283 ] -   (layer4): SE_Res2Block(
[ INFO : 2024-09-26 00:10:44,283 ] -     (se_res2block): Sequential(
[ INFO : 2024-09-26 00:10:44,283 ] -       (0): Conv1dReluBn(
[ INFO : 2024-09-26 00:10:44,283 ] -         (conv): Conv1d(512, 512, kernel_size=(1,), stride=(1,))
[ INFO : 2024-09-26 00:10:44,283 ] -         (bn): BatchNorm1d(512, eps=1e-05, momentum=0.1, affine=True, track_running_stats=True)
[ INFO : 2024-09-26 00:10:44,283 ] -       )
[ INFO : 2024-09-26 00:10:44,283 ] -       (1): Res2Conv1dReluBn(
[ INFO : 2024-09-26 00:10:44,283 ] -         (convs): ModuleList(
[ INFO : 2024-09-26 00:10:44,283 ] -           (0): Conv1d(64, 64, kernel_size=(3,), stride=(1,), padding=(4,), dilation=(4,))
[ INFO : 2024-09-26 00:10:44,283 ] -           (1): Conv1d(64, 64, kernel_size=(3,), stride=(1,), padding=(4,), dilation=(4,))
[ INFO : 2024-09-26 00:10:44,283 ] -           (2): Conv1d(64, 64, kernel_size=(3,), stride=(1,), padding=(4,), dilation=(4,))
[ INFO : 2024-09-26 00:10:44,283 ] -           (3): Conv1d(64, 64, kernel_size=(3,), stride=(1,), padding=(4,), dilation=(4,))
[ INFO : 2024-09-26 00:10:44,283 ] -           (4): Conv1d(64, 64, kernel_size=(3,), stride=(1,), padding=(4,), dilation=(4,))
[ INFO : 2024-09-26 00:10:44,283 ] -           (5): Conv1d(64, 64, kernel_size=(3,), stride=(1,), padding=(4,), dilation=(4,))
[ INFO : 2024-09-26 00:10:44,283 ] -           (6): Conv1d(64, 64, kernel_size=(3,), stride=(1,), padding=(4,), dilation=(4,))
[ INFO : 2024-09-26 00:10:44,283 ] -         )
[ INFO : 2024-09-26 00:10:44,283 ] -         (bns): ModuleList(
[ INFO : 2024-09-26 00:10:44,283 ] -           (0): BatchNorm1d(64, eps=1e-05, momentum=0.1, affine=True, track_running_stats=True)
[ INFO : 2024-09-26 00:10:44,283 ] -           (1): BatchNorm1d(64, eps=1e-05, momentum=0.1, affine=True, track_running_stats=True)
[ INFO : 2024-09-26 00:10:44,284 ] -           (2): BatchNorm1d(64, eps=1e-05, momentum=0.1, affine=True, track_running_stats=True)
[ INFO : 2024-09-26 00:10:44,284 ] -           (3): BatchNorm1d(64, eps=1e-05, momentum=0.1, affine=True, track_running_stats=True)
[ INFO : 2024-09-26 00:10:44,284 ] -           (4): BatchNorm1d(64, eps=1e-05, momentum=0.1, affine=True, track_running_stats=True)
[ INFO : 2024-09-26 00:10:44,284 ] -           (5): BatchNorm1d(64, eps=1e-05, momentum=0.1, affine=True, track_running_stats=True)
[ INFO : 2024-09-26 00:10:44,284 ] -           (6): BatchNorm1d(64, eps=1e-05, momentum=0.1, affine=True, track_running_stats=True)
[ INFO : 2024-09-26 00:10:44,284 ] -         )
[ INFO : 2024-09-26 00:10:44,284 ] -       )
[ INFO : 2024-09-26 00:10:44,284 ] -       (2): Conv1dReluBn(
[ INFO : 2024-09-26 00:10:44,284 ] -         (conv): Conv1d(512, 512, kernel_size=(1,), stride=(1,))
[ INFO : 2024-09-26 00:10:44,284 ] -         (bn): BatchNorm1d(512, eps=1e-05, momentum=0.1, affine=True, track_running_stats=True)
[ INFO : 2024-09-26 00:10:44,284 ] -       )
[ INFO : 2024-09-26 00:10:44,284 ] -       (3): SE_Connect(
[ INFO : 2024-09-26 00:10:44,284 ] -         (linear1): Linear(in_features=512, out_features=128, bias=True)
[ INFO : 2024-09-26 00:10:44,284 ] -         (linear2): Linear(in_features=128, out_features=512, bias=True)
[ INFO : 2024-09-26 00:10:44,284 ] -       )
[ INFO : 2024-09-26 00:10:44,284 ] -     )
[ INFO : 2024-09-26 00:10:44,284 ] -   )
[ INFO : 2024-09-26 00:10:44,284 ] -   (conv): Conv1d(1536, 1536, kernel_size=(1,), stride=(1,))
[ INFO : 2024-09-26 00:10:44,284 ] -   (pool): ASTP(
[ INFO : 2024-09-26 00:10:44,284 ] -     (linear1): Conv1d(4608, 128, kernel_size=(1,), stride=(1,))
[ INFO : 2024-09-26 00:10:44,285 ] -     (linear2): Conv1d(128, 1536, kernel_size=(1,), stride=(1,))
[ INFO : 2024-09-26 00:10:44,285 ] -   )
[ INFO : 2024-09-26 00:10:44,285 ] -   (bn): BatchNorm1d(3072, eps=1e-05, momentum=0.1, affine=True, track_running_stats=True)
[ INFO : 2024-09-26 00:10:44,285 ] -   (linear): Linear(in_features=3072, out_features=192, bias=True)
[ INFO : 2024-09-26 00:10:44,285 ] -   (bn2): Identity()
[ INFO : 2024-09-26 00:10:44,285 ] -   (frontend): S3prlFrontend(
[ INFO : 2024-09-26 00:10:44,285 ] -     (upstream): S3PRLUpstream(
[ INFO : 2024-09-26 00:10:44,285 ] -       (upstream): UpstreamExpert(
[ INFO : 2024-09-26 00:10:44,285 ] -         (model): WavLM(
[ INFO : 2024-09-26 00:10:44,285 ] -           (feature_extractor): ConvFeatureExtractionModel(
[ INFO : 2024-09-26 00:10:44,285 ] -             (conv_layers): ModuleList(
[ INFO : 2024-09-26 00:10:44,285 ] -               (0): Sequential(
[ INFO : 2024-09-26 00:10:44,285 ] -                 (0): Conv1d(1, 512, kernel_size=(10,), stride=(5,), bias=False)
[ INFO : 2024-09-26 00:10:44,285 ] -                 (1): Dropout(p=0.0, inplace=False)
[ INFO : 2024-09-26 00:10:44,285 ] -                 (2): Sequential(
[ INFO : 2024-09-26 00:10:44,285 ] -                   (0): TransposeLast()
[ INFO : 2024-09-26 00:10:44,285 ] -                   (1): Fp32LayerNorm((512,), eps=1e-05, elementwise_affine=True)
[ INFO : 2024-09-26 00:10:44,285 ] -                   (2): TransposeLast()
[ INFO : 2024-09-26 00:10:44,285 ] -                 )
[ INFO : 2024-09-26 00:10:44,286 ] -                 (3): GELU(approximate='none')
[ INFO : 2024-09-26 00:10:44,286 ] -               )
[ INFO : 2024-09-26 00:10:44,286 ] -               (1): Sequential(
[ INFO : 2024-09-26 00:10:44,286 ] -                 (0): Conv1d(512, 512, kernel_size=(3,), stride=(2,), bias=False)
[ INFO : 2024-09-26 00:10:44,286 ] -                 (1): Dropout(p=0.0, inplace=False)
[ INFO : 2024-09-26 00:10:44,286 ] -                 (2): Sequential(
[ INFO : 2024-09-26 00:10:44,286 ] -                   (0): TransposeLast()
[ INFO : 2024-09-26 00:10:44,286 ] -                   (1): Fp32LayerNorm((512,), eps=1e-05, elementwise_affine=True)
[ INFO : 2024-09-26 00:10:44,286 ] -                   (2): TransposeLast()
[ INFO : 2024-09-26 00:10:44,286 ] -                 )
[ INFO : 2024-09-26 00:10:44,286 ] -                 (3): GELU(approximate='none')
[ INFO : 2024-09-26 00:10:44,286 ] -               )
[ INFO : 2024-09-26 00:10:44,286 ] -               (2): Sequential(
[ INFO : 2024-09-26 00:10:44,286 ] -                 (0): Conv1d(512, 512, kernel_size=(3,), stride=(2,), bias=False)
[ INFO : 2024-09-26 00:10:44,286 ] -                 (1): Dropout(p=0.0, inplace=False)
[ INFO : 2024-09-26 00:10:44,286 ] -                 (2): Sequential(
[ INFO : 2024-09-26 00:10:44,286 ] -                   (0): TransposeLast()
[ INFO : 2024-09-26 00:10:44,286 ] -                   (1): Fp32LayerNorm((512,), eps=1e-05, elementwise_affine=True)
[ INFO : 2024-09-26 00:10:44,287 ] -                   (2): TransposeLast()
[ INFO : 2024-09-26 00:10:44,287 ] -                 )
[ INFO : 2024-09-26 00:10:44,287 ] -                 (3): GELU(approximate='none')
[ INFO : 2024-09-26 00:10:44,287 ] -               )
[ INFO : 2024-09-26 00:10:44,287 ] -               (3): Sequential(
[ INFO : 2024-09-26 00:10:44,287 ] -                 (0): Conv1d(512, 512, kernel_size=(3,), stride=(2,), bias=False)
[ INFO : 2024-09-26 00:10:44,287 ] -                 (1): Dropout(p=0.0, inplace=False)
[ INFO : 2024-09-26 00:10:44,287 ] -                 (2): Sequential(
[ INFO : 2024-09-26 00:10:44,287 ] -                   (0): TransposeLast()
[ INFO : 2024-09-26 00:10:44,287 ] -                   (1): Fp32LayerNorm((512,), eps=1e-05, elementwise_affine=True)
[ INFO : 2024-09-26 00:10:44,287 ] -                   (2): TransposeLast()
[ INFO : 2024-09-26 00:10:44,287 ] -                 )
[ INFO : 2024-09-26 00:10:44,287 ] -                 (3): GELU(approximate='none')
[ INFO : 2024-09-26 00:10:44,287 ] -               )
[ INFO : 2024-09-26 00:10:44,287 ] -               (4): Sequential(
[ INFO : 2024-09-26 00:10:44,287 ] -                 (0): Conv1d(512, 512, kernel_size=(3,), stride=(2,), bias=False)
[ INFO : 2024-09-26 00:10:44,287 ] -                 (1): Dropout(p=0.0, inplace=False)
[ INFO : 2024-09-26 00:10:44,287 ] -                 (2): Sequential(
[ INFO : 2024-09-26 00:10:44,287 ] -                   (0): TransposeLast()
[ INFO : 2024-09-26 00:10:44,287 ] -                   (1): Fp32LayerNorm((512,), eps=1e-05, elementwise_affine=True)
[ INFO : 2024-09-26 00:10:44,288 ] -                   (2): TransposeLast()
[ INFO : 2024-09-26 00:10:44,288 ] -                 )
[ INFO : 2024-09-26 00:10:44,288 ] -                 (3): GELU(approximate='none')
[ INFO : 2024-09-26 00:10:44,288 ] -               )
[ INFO : 2024-09-26 00:10:44,288 ] -               (5): Sequential(
[ INFO : 2024-09-26 00:10:44,288 ] -                 (0): Conv1d(512, 512, kernel_size=(2,), stride=(2,), bias=False)
[ INFO : 2024-09-26 00:10:44,288 ] -                 (1): Dropout(p=0.0, inplace=False)
[ INFO : 2024-09-26 00:10:44,288 ] -                 (2): Sequential(
[ INFO : 2024-09-26 00:10:44,288 ] -                   (0): TransposeLast()
[ INFO : 2024-09-26 00:10:44,288 ] -                   (1): Fp32LayerNorm((512,), eps=1e-05, elementwise_affine=True)
[ INFO : 2024-09-26 00:10:44,288 ] -                   (2): TransposeLast()
[ INFO : 2024-09-26 00:10:44,288 ] -                 )
[ INFO : 2024-09-26 00:10:44,288 ] -                 (3): GELU(approximate='none')
[ INFO : 2024-09-26 00:10:44,288 ] -               )
[ INFO : 2024-09-26 00:10:44,288 ] -               (6): Sequential(
[ INFO : 2024-09-26 00:10:44,288 ] -                 (0): Conv1d(512, 512, kernel_size=(2,), stride=(2,), bias=False)
[ INFO : 2024-09-26 00:10:44,288 ] -                 (1): Dropout(p=0.0, inplace=False)
[ INFO : 2024-09-26 00:10:44,288 ] -                 (2): Sequential(
[ INFO : 2024-09-26 00:10:44,288 ] -                   (0): TransposeLast()
[ INFO : 2024-09-26 00:10:44,288 ] -                   (1): Fp32LayerNorm((512,), eps=1e-05, elementwise_affine=True)
[ INFO : 2024-09-26 00:10:44,289 ] -                   (2): TransposeLast()
[ INFO : 2024-09-26 00:10:44,289 ] -                 )
[ INFO : 2024-09-26 00:10:44,289 ] -                 (3): GELU(approximate='none')
[ INFO : 2024-09-26 00:10:44,289 ] -               )
[ INFO : 2024-09-26 00:10:44,289 ] -             )
[ INFO : 2024-09-26 00:10:44,289 ] -           )
[ INFO : 2024-09-26 00:10:44,289 ] -           (post_extract_proj): Linear(in_features=512, out_features=1024, bias=True)
[ INFO : 2024-09-26 00:10:44,289 ] -           (dropout_input): Dropout(p=0.0, inplace=False)
[ INFO : 2024-09-26 00:10:44,289 ] -           (dropout_features): Dropout(p=0.0, inplace=False)
[ INFO : 2024-09-26 00:10:44,289 ] -           (encoder): TransformerEncoder(
[ INFO : 2024-09-26 00:10:44,289 ] -             (pos_conv): Sequential(
[ INFO : 2024-09-26 00:10:44,289 ] -               (0): Conv1d(1024, 1024, kernel_size=(128,), stride=(1,), padding=(64,), groups=16)
[ INFO : 2024-09-26 00:10:44,289 ] -               (1): SamePad()
[ INFO : 2024-09-26 00:10:44,289 ] -               (2): GELU(approximate='none')
[ INFO : 2024-09-26 00:10:44,289 ] -             )
[ INFO : 2024-09-26 00:10:44,289 ] -             (layers): ModuleList(
[ INFO : 2024-09-26 00:10:44,289 ] -               (0): TransformerSentenceEncoderLayer(
[ INFO : 2024-09-26 00:10:44,289 ] -                 (self_attn): MultiheadAttention(
[ INFO : 2024-09-26 00:10:44,289 ] -                   (dropout_module): Dropout(p=0.0, inplace=False)
[ INFO : 2024-09-26 00:10:44,289 ] -                   (relative_attention_bias): Embedding(320, 16)
[ INFO : 2024-09-26 00:10:44,290 ] -                   (k_proj): Linear(in_features=1024, out_features=1024, bias=True)
[ INFO : 2024-09-26 00:10:44,290 ] -                   (v_proj): Linear(in_features=1024, out_features=1024, bias=True)
[ INFO : 2024-09-26 00:10:44,290 ] -                   (q_proj): Linear(in_features=1024, out_features=1024, bias=True)
[ INFO : 2024-09-26 00:10:44,290 ] -                   (out_proj): Linear(in_features=1024, out_features=1024, bias=True)
[ INFO : 2024-09-26 00:10:44,290 ] -                   (grep_linear): Linear(in_features=64, out_features=8, bias=True)
[ INFO : 2024-09-26 00:10:44,290 ] -                 )
[ INFO : 2024-09-26 00:10:44,290 ] -                 (dropout1): Dropout(p=0.0, inplace=False)
[ INFO : 2024-09-26 00:10:44,290 ] -                 (dropout2): Dropout(p=0.0, inplace=False)
[ INFO : 2024-09-26 00:10:44,290 ] -                 (dropout3): Dropout(p=0.0, inplace=False)
[ INFO : 2024-09-26 00:10:44,290 ] -                 (self_attn_layer_norm): LayerNorm((1024,), eps=1e-05, elementwise_affine=True)
[ INFO : 2024-09-26 00:10:44,290 ] -                 (fc1): Linear(in_features=1024, out_features=4096, bias=True)
[ INFO : 2024-09-26 00:10:44,290 ] -                 (fc2): Linear(in_features=4096, out_features=1024, bias=True)
[ INFO : 2024-09-26 00:10:44,290 ] -                 (final_layer_norm): LayerNorm((1024,), eps=1e-05, elementwise_affine=True)
[ INFO : 2024-09-26 00:10:44,290 ] -               )
[ INFO : 2024-09-26 00:10:44,290 ] -               (1): TransformerSentenceEncoderLayer(
[ INFO : 2024-09-26 00:10:44,290 ] -                 (self_attn): MultiheadAttention(
[ INFO : 2024-09-26 00:10:44,290 ] -                   (dropout_module): Dropout(p=0.0, inplace=False)
[ INFO : 2024-09-26 00:10:44,290 ] -                   (k_proj): Linear(in_features=1024, out_features=1024, bias=True)
[ INFO : 2024-09-26 00:10:44,290 ] -                   (v_proj): Linear(in_features=1024, out_features=1024, bias=True)
[ INFO : 2024-09-26 00:10:44,290 ] -                   (q_proj): Linear(in_features=1024, out_features=1024, bias=True)
[ INFO : 2024-09-26 00:10:44,291 ] -                   (out_proj): Linear(in_features=1024, out_features=1024, bias=True)
[ INFO : 2024-09-26 00:10:44,291 ] -                   (grep_linear): Linear(in_features=64, out_features=8, bias=True)
[ INFO : 2024-09-26 00:10:44,291 ] -                 )
[ INFO : 2024-09-26 00:10:44,291 ] -                 (dropout1): Dropout(p=0.0, inplace=False)
[ INFO : 2024-09-26 00:10:44,291 ] -                 (dropout2): Dropout(p=0.0, inplace=False)
[ INFO : 2024-09-26 00:10:44,291 ] -                 (dropout3): Dropout(p=0.0, inplace=False)
[ INFO : 2024-09-26 00:10:44,291 ] -                 (self_attn_layer_norm): LayerNorm((1024,), eps=1e-05, elementwise_affine=True)
[ INFO : 2024-09-26 00:10:44,291 ] -                 (fc1): Linear(in_features=1024, out_features=4096, bias=True)
[ INFO : 2024-09-26 00:10:44,291 ] -                 (fc2): Linear(in_features=4096, out_features=1024, bias=True)
[ INFO : 2024-09-26 00:10:44,291 ] -                 (final_layer_norm): LayerNorm((1024,), eps=1e-05, elementwise_affine=True)
[ INFO : 2024-09-26 00:10:44,291 ] -               )
[ INFO : 2024-09-26 00:10:44,291 ] -               (2): TransformerSentenceEncoderLayer(
[ INFO : 2024-09-26 00:10:44,291 ] -                 (self_attn): MultiheadAttention(
[ INFO : 2024-09-26 00:10:44,291 ] -                   (dropout_module): Dropout(p=0.0, inplace=False)
[ INFO : 2024-09-26 00:10:44,291 ] -                   (k_proj): Linear(in_features=1024, out_features=1024, bias=True)
[ INFO : 2024-09-26 00:10:44,291 ] -                   (v_proj): Linear(in_features=1024, out_features=1024, bias=True)
[ INFO : 2024-09-26 00:10:44,291 ] -                   (q_proj): Linear(in_features=1024, out_features=1024, bias=True)
[ INFO : 2024-09-26 00:10:44,291 ] -                   (out_proj): Linear(in_features=1024, out_features=1024, bias=True)
[ INFO : 2024-09-26 00:10:44,291 ] -                   (grep_linear): Linear(in_features=64, out_features=8, bias=True)
[ INFO : 2024-09-26 00:10:44,291 ] -                 )
[ INFO : 2024-09-26 00:10:44,292 ] -                 (dropout1): Dropout(p=0.0, inplace=False)
[ INFO : 2024-09-26 00:10:44,292 ] -                 (dropout2): Dropout(p=0.0, inplace=False)
[ INFO : 2024-09-26 00:10:44,292 ] -                 (dropout3): Dropout(p=0.0, inplace=False)
[ INFO : 2024-09-26 00:10:44,292 ] -                 (self_attn_layer_norm): LayerNorm((1024,), eps=1e-05, elementwise_affine=True)
[ INFO : 2024-09-26 00:10:44,292 ] -                 (fc1): Linear(in_features=1024, out_features=4096, bias=True)
[ INFO : 2024-09-26 00:10:44,292 ] -                 (fc2): Linear(in_features=4096, out_features=1024, bias=True)
[ INFO : 2024-09-26 00:10:44,292 ] -                 (final_layer_norm): LayerNorm((1024,), eps=1e-05, elementwise_affine=True)
[ INFO : 2024-09-26 00:10:44,292 ] -               )
[ INFO : 2024-09-26 00:10:44,292 ] -               (3): TransformerSentenceEncoderLayer(
[ INFO : 2024-09-26 00:10:44,292 ] -                 (self_attn): MultiheadAttention(
[ INFO : 2024-09-26 00:10:44,292 ] -                   (dropout_module): Dropout(p=0.0, inplace=False)
[ INFO : 2024-09-26 00:10:44,292 ] -                   (k_proj): Linear(in_features=1024, out_features=1024, bias=True)
[ INFO : 2024-09-26 00:10:44,292 ] -                   (v_proj): Linear(in_features=1024, out_features=1024, bias=True)
[ INFO : 2024-09-26 00:10:44,292 ] -                   (q_proj): Linear(in_features=1024, out_features=1024, bias=True)
[ INFO : 2024-09-26 00:10:44,292 ] -                   (out_proj): Linear(in_features=1024, out_features=1024, bias=True)
[ INFO : 2024-09-26 00:10:44,292 ] -                   (grep_linear): Linear(in_features=64, out_features=8, bias=True)
[ INFO : 2024-09-26 00:10:44,292 ] -                 )
[ INFO : 2024-09-26 00:10:44,292 ] -                 (dropout1): Dropout(p=0.0, inplace=False)
[ INFO : 2024-09-26 00:10:44,292 ] -                 (dropout2): Dropout(p=0.0, inplace=False)
[ INFO : 2024-09-26 00:10:44,292 ] -                 (dropout3): Dropout(p=0.0, inplace=False)
[ INFO : 2024-09-26 00:10:44,293 ] -                 (self_attn_layer_norm): LayerNorm((1024,), eps=1e-05, elementwise_affine=True)
[ INFO : 2024-09-26 00:10:44,293 ] -                 (fc1): Linear(in_features=1024, out_features=4096, bias=True)
[ INFO : 2024-09-26 00:10:44,293 ] -                 (fc2): Linear(in_features=4096, out_features=1024, bias=True)
[ INFO : 2024-09-26 00:10:44,293 ] -                 (final_layer_norm): LayerNorm((1024,), eps=1e-05, elementwise_affine=True)
[ INFO : 2024-09-26 00:10:44,293 ] -               )
[ INFO : 2024-09-26 00:10:44,293 ] -               (4): TransformerSentenceEncoderLayer(
[ INFO : 2024-09-26 00:10:44,293 ] -                 (self_attn): MultiheadAttention(
[ INFO : 2024-09-26 00:10:44,293 ] -                   (dropout_module): Dropout(p=0.0, inplace=False)
[ INFO : 2024-09-26 00:10:44,293 ] -                   (k_proj): Linear(in_features=1024, out_features=1024, bias=True)
[ INFO : 2024-09-26 00:10:44,293 ] -                   (v_proj): Linear(in_features=1024, out_features=1024, bias=True)
[ INFO : 2024-09-26 00:10:44,293 ] -                   (q_proj): Linear(in_features=1024, out_features=1024, bias=True)
[ INFO : 2024-09-26 00:10:44,293 ] -                   (out_proj): Linear(in_features=1024, out_features=1024, bias=True)
[ INFO : 2024-09-26 00:10:44,293 ] -                   (grep_linear): Linear(in_features=64, out_features=8, bias=True)
[ INFO : 2024-09-26 00:10:44,293 ] -                 )
[ INFO : 2024-09-26 00:10:44,293 ] -                 (dropout1): Dropout(p=0.0, inplace=False)
[ INFO : 2024-09-26 00:10:44,293 ] -                 (dropout2): Dropout(p=0.0, inplace=False)
[ INFO : 2024-09-26 00:10:44,293 ] -                 (dropout3): Dropout(p=0.0, inplace=False)
[ INFO : 2024-09-26 00:10:44,293 ] -                 (self_attn_layer_norm): LayerNorm((1024,), eps=1e-05, elementwise_affine=True)
[ INFO : 2024-09-26 00:10:44,293 ] -                 (fc1): Linear(in_features=1024, out_features=4096, bias=True)
[ INFO : 2024-09-26 00:10:44,293 ] -                 (fc2): Linear(in_features=4096, out_features=1024, bias=True)
[ INFO : 2024-09-26 00:10:44,294 ] -                 (final_layer_norm): LayerNorm((1024,), eps=1e-05, elementwise_affine=True)
[ INFO : 2024-09-26 00:10:44,294 ] -               )
[ INFO : 2024-09-26 00:10:44,294 ] -               (5): TransformerSentenceEncoderLayer(
[ INFO : 2024-09-26 00:10:44,294 ] -                 (self_attn): MultiheadAttention(
[ INFO : 2024-09-26 00:10:44,294 ] -                   (dropout_module): Dropout(p=0.0, inplace=False)
[ INFO : 2024-09-26 00:10:44,294 ] -                   (k_proj): Linear(in_features=1024, out_features=1024, bias=True)
[ INFO : 2024-09-26 00:10:44,294 ] -                   (v_proj): Linear(in_features=1024, out_features=1024, bias=True)
[ INFO : 2024-09-26 00:10:44,294 ] -                   (q_proj): Linear(in_features=1024, out_features=1024, bias=True)
[ INFO : 2024-09-26 00:10:44,294 ] -                   (out_proj): Linear(in_features=1024, out_features=1024, bias=True)
[ INFO : 2024-09-26 00:10:44,294 ] -                   (grep_linear): Linear(in_features=64, out_features=8, bias=True)
[ INFO : 2024-09-26 00:10:44,294 ] -                 )
[ INFO : 2024-09-26 00:10:44,294 ] -                 (dropout1): Dropout(p=0.0, inplace=False)
[ INFO : 2024-09-26 00:10:44,294 ] -                 (dropout2): Dropout(p=0.0, inplace=False)
[ INFO : 2024-09-26 00:10:44,294 ] -                 (dropout3): Dropout(p=0.0, inplace=False)
[ INFO : 2024-09-26 00:10:44,294 ] -                 (self_attn_layer_norm): LayerNorm((1024,), eps=1e-05, elementwise_affine=True)
[ INFO : 2024-09-26 00:10:44,294 ] -                 (fc1): Linear(in_features=1024, out_features=4096, bias=True)
[ INFO : 2024-09-26 00:10:44,294 ] -                 (fc2): Linear(in_features=4096, out_features=1024, bias=True)
[ INFO : 2024-09-26 00:10:44,294 ] -                 (final_layer_norm): LayerNorm((1024,), eps=1e-05, elementwise_affine=True)
[ INFO : 2024-09-26 00:10:44,294 ] -               )
[ INFO : 2024-09-26 00:10:44,294 ] -               (6): TransformerSentenceEncoderLayer(
[ INFO : 2024-09-26 00:10:44,295 ] -                 (self_attn): MultiheadAttention(
[ INFO : 2024-09-26 00:10:44,295 ] -                   (dropout_module): Dropout(p=0.0, inplace=False)
[ INFO : 2024-09-26 00:10:44,295 ] -                   (k_proj): Linear(in_features=1024, out_features=1024, bias=True)
[ INFO : 2024-09-26 00:10:44,295 ] -                   (v_proj): Linear(in_features=1024, out_features=1024, bias=True)
[ INFO : 2024-09-26 00:10:44,295 ] -                   (q_proj): Linear(in_features=1024, out_features=1024, bias=True)
[ INFO : 2024-09-26 00:10:44,295 ] -                   (out_proj): Linear(in_features=1024, out_features=1024, bias=True)
[ INFO : 2024-09-26 00:10:44,295 ] -                   (grep_linear): Linear(in_features=64, out_features=8, bias=True)
[ INFO : 2024-09-26 00:10:44,295 ] -                 )
[ INFO : 2024-09-26 00:10:44,295 ] -                 (dropout1): Dropout(p=0.0, inplace=False)
[ INFO : 2024-09-26 00:10:44,295 ] -                 (dropout2): Dropout(p=0.0, inplace=False)
[ INFO : 2024-09-26 00:10:44,295 ] -                 (dropout3): Dropout(p=0.0, inplace=False)
[ INFO : 2024-09-26 00:10:44,295 ] -                 (self_attn_layer_norm): LayerNorm((1024,), eps=1e-05, elementwise_affine=True)
[ INFO : 2024-09-26 00:10:44,295 ] -                 (fc1): Linear(in_features=1024, out_features=4096, bias=True)
[ INFO : 2024-09-26 00:10:44,295 ] -                 (fc2): Linear(in_features=4096, out_features=1024, bias=True)
[ INFO : 2024-09-26 00:10:44,295 ] -                 (final_layer_norm): LayerNorm((1024,), eps=1e-05, elementwise_affine=True)
[ INFO : 2024-09-26 00:10:44,295 ] -               )
[ INFO : 2024-09-26 00:10:44,295 ] -               (7): TransformerSentenceEncoderLayer(
[ INFO : 2024-09-26 00:10:44,295 ] -                 (self_attn): MultiheadAttention(
[ INFO : 2024-09-26 00:10:44,295 ] -                   (dropout_module): Dropout(p=0.0, inplace=False)
[ INFO : 2024-09-26 00:10:44,295 ] -                   (k_proj): Linear(in_features=1024, out_features=1024, bias=True)
[ INFO : 2024-09-26 00:10:44,296 ] -                   (v_proj): Linear(in_features=1024, out_features=1024, bias=True)
[ INFO : 2024-09-26 00:10:44,296 ] -                   (q_proj): Linear(in_features=1024, out_features=1024, bias=True)
[ INFO : 2024-09-26 00:10:44,296 ] -                   (out_proj): Linear(in_features=1024, out_features=1024, bias=True)
[ INFO : 2024-09-26 00:10:44,296 ] -                   (grep_linear): Linear(in_features=64, out_features=8, bias=True)
[ INFO : 2024-09-26 00:10:44,296 ] -                 )
[ INFO : 2024-09-26 00:10:44,296 ] -                 (dropout1): Dropout(p=0.0, inplace=False)
[ INFO : 2024-09-26 00:10:44,296 ] -                 (dropout2): Dropout(p=0.0, inplace=False)
[ INFO : 2024-09-26 00:10:44,296 ] -                 (dropout3): Dropout(p=0.0, inplace=False)
[ INFO : 2024-09-26 00:10:44,296 ] -                 (self_attn_layer_norm): LayerNorm((1024,), eps=1e-05, elementwise_affine=True)
[ INFO : 2024-09-26 00:10:44,296 ] -                 (fc1): Linear(in_features=1024, out_features=4096, bias=True)
[ INFO : 2024-09-26 00:10:44,296 ] -                 (fc2): Linear(in_features=4096, out_features=1024, bias=True)
[ INFO : 2024-09-26 00:10:44,296 ] -                 (final_layer_norm): LayerNorm((1024,), eps=1e-05, elementwise_affine=True)
[ INFO : 2024-09-26 00:10:44,296 ] -               )
[ INFO : 2024-09-26 00:10:44,296 ] -               (8): TransformerSentenceEncoderLayer(
[ INFO : 2024-09-26 00:10:44,296 ] -                 (self_attn): MultiheadAttention(
[ INFO : 2024-09-26 00:10:44,296 ] -                   (dropout_module): Dropout(p=0.0, inplace=False)
[ INFO : 2024-09-26 00:10:44,296 ] -                   (k_proj): Linear(in_features=1024, out_features=1024, bias=True)
[ INFO : 2024-09-26 00:10:44,296 ] -                   (v_proj): Linear(in_features=1024, out_features=1024, bias=True)
[ INFO : 2024-09-26 00:10:44,296 ] -                   (q_proj): Linear(in_features=1024, out_features=1024, bias=True)
[ INFO : 2024-09-26 00:10:44,296 ] -                   (out_proj): Linear(in_features=1024, out_features=1024, bias=True)
[ INFO : 2024-09-26 00:10:44,296 ] -                   (grep_linear): Linear(in_features=64, out_features=8, bias=True)
[ INFO : 2024-09-26 00:10:44,297 ] -                 )
[ INFO : 2024-09-26 00:10:44,297 ] -                 (dropout1): Dropout(p=0.0, inplace=False)
[ INFO : 2024-09-26 00:10:44,297 ] -                 (dropout2): Dropout(p=0.0, inplace=False)
[ INFO : 2024-09-26 00:10:44,297 ] -                 (dropout3): Dropout(p=0.0, inplace=False)
[ INFO : 2024-09-26 00:10:44,297 ] -                 (self_attn_layer_norm): LayerNorm((1024,), eps=1e-05, elementwise_affine=True)
[ INFO : 2024-09-26 00:10:44,297 ] -                 (fc1): Linear(in_features=1024, out_features=4096, bias=True)
[ INFO : 2024-09-26 00:10:44,297 ] -                 (fc2): Linear(in_features=4096, out_features=1024, bias=True)
[ INFO : 2024-09-26 00:10:44,297 ] -                 (final_layer_norm): LayerNorm((1024,), eps=1e-05, elementwise_affine=True)
[ INFO : 2024-09-26 00:10:44,297 ] -               )
[ INFO : 2024-09-26 00:10:44,297 ] -               (9): TransformerSentenceEncoderLayer(
[ INFO : 2024-09-26 00:10:44,297 ] -                 (self_attn): MultiheadAttention(
[ INFO : 2024-09-26 00:10:44,297 ] -                   (dropout_module): Dropout(p=0.0, inplace=False)
[ INFO : 2024-09-26 00:10:44,297 ] -                   (k_proj): Linear(in_features=1024, out_features=1024, bias=True)
[ INFO : 2024-09-26 00:10:44,297 ] -                   (v_proj): Linear(in_features=1024, out_features=1024, bias=True)
[ INFO : 2024-09-26 00:10:44,297 ] -                   (q_proj): Linear(in_features=1024, out_features=1024, bias=True)
[ INFO : 2024-09-26 00:10:44,297 ] -                   (out_proj): Linear(in_features=1024, out_features=1024, bias=True)
[ INFO : 2024-09-26 00:10:44,297 ] -                   (grep_linear): Linear(in_features=64, out_features=8, bias=True)
[ INFO : 2024-09-26 00:10:44,297 ] -                 )
[ INFO : 2024-09-26 00:10:44,297 ] -                 (dropout1): Dropout(p=0.0, inplace=False)
[ INFO : 2024-09-26 00:10:44,297 ] -                 (dropout2): Dropout(p=0.0, inplace=False)
[ INFO : 2024-09-26 00:10:44,298 ] -                 (dropout3): Dropout(p=0.0, inplace=False)
[ INFO : 2024-09-26 00:10:44,298 ] -                 (self_attn_layer_norm): LayerNorm((1024,), eps=1e-05, elementwise_affine=True)
[ INFO : 2024-09-26 00:10:44,298 ] -                 (fc1): Linear(in_features=1024, out_features=4096, bias=True)
[ INFO : 2024-09-26 00:10:44,298 ] -                 (fc2): Linear(in_features=4096, out_features=1024, bias=True)
[ INFO : 2024-09-26 00:10:44,298 ] -                 (final_layer_norm): LayerNorm((1024,), eps=1e-05, elementwise_affine=True)
[ INFO : 2024-09-26 00:10:44,298 ] -               )
[ INFO : 2024-09-26 00:10:44,298 ] -               (10): TransformerSentenceEncoderLayer(
[ INFO : 2024-09-26 00:10:44,298 ] -                 (self_attn): MultiheadAttention(
[ INFO : 2024-09-26 00:10:44,298 ] -                   (dropout_module): Dropout(p=0.0, inplace=False)
[ INFO : 2024-09-26 00:10:44,298 ] -                   (k_proj): Linear(in_features=1024, out_features=1024, bias=True)
[ INFO : 2024-09-26 00:10:44,298 ] -                   (v_proj): Linear(in_features=1024, out_features=1024, bias=True)
[ INFO : 2024-09-26 00:10:44,298 ] -                   (q_proj): Linear(in_features=1024, out_features=1024, bias=True)
[ INFO : 2024-09-26 00:10:44,298 ] -                   (out_proj): Linear(in_features=1024, out_features=1024, bias=True)
[ INFO : 2024-09-26 00:10:44,298 ] -                   (grep_linear): Linear(in_features=64, out_features=8, bias=True)
[ INFO : 2024-09-26 00:10:44,298 ] -                 )
[ INFO : 2024-09-26 00:10:44,298 ] -                 (dropout1): Dropout(p=0.0, inplace=False)
[ INFO : 2024-09-26 00:10:44,298 ] -                 (dropout2): Dropout(p=0.0, inplace=False)
[ INFO : 2024-09-26 00:10:44,298 ] -                 (dropout3): Dropout(p=0.0, inplace=False)
[ INFO : 2024-09-26 00:10:44,298 ] -                 (self_attn_layer_norm): LayerNorm((1024,), eps=1e-05, elementwise_affine=True)
[ INFO : 2024-09-26 00:10:44,298 ] -                 (fc1): Linear(in_features=1024, out_features=4096, bias=True)
[ INFO : 2024-09-26 00:10:44,299 ] -                 (fc2): Linear(in_features=4096, out_features=1024, bias=True)
[ INFO : 2024-09-26 00:10:44,299 ] -                 (final_layer_norm): LayerNorm((1024,), eps=1e-05, elementwise_affine=True)
[ INFO : 2024-09-26 00:10:44,299 ] -               )
[ INFO : 2024-09-26 00:10:44,299 ] -               (11): TransformerSentenceEncoderLayer(
[ INFO : 2024-09-26 00:10:44,299 ] -                 (self_attn): MultiheadAttention(
[ INFO : 2024-09-26 00:10:44,299 ] -                   (dropout_module): Dropout(p=0.0, inplace=False)
[ INFO : 2024-09-26 00:10:44,299 ] -                   (k_proj): Linear(in_features=1024, out_features=1024, bias=True)
[ INFO : 2024-09-26 00:10:44,299 ] -                   (v_proj): Linear(in_features=1024, out_features=1024, bias=True)
[ INFO : 2024-09-26 00:10:44,299 ] -                   (q_proj): Linear(in_features=1024, out_features=1024, bias=True)
[ INFO : 2024-09-26 00:10:44,299 ] -                   (out_proj): Linear(in_features=1024, out_features=1024, bias=True)
[ INFO : 2024-09-26 00:10:44,299 ] -                   (grep_linear): Linear(in_features=64, out_features=8, bias=True)
[ INFO : 2024-09-26 00:10:44,299 ] -                 )
[ INFO : 2024-09-26 00:10:44,299 ] -                 (dropout1): Dropout(p=0.0, inplace=False)
[ INFO : 2024-09-26 00:10:44,299 ] -                 (dropout2): Dropout(p=0.0, inplace=False)
[ INFO : 2024-09-26 00:10:44,299 ] -                 (dropout3): Dropout(p=0.0, inplace=False)
[ INFO : 2024-09-26 00:10:44,299 ] -                 (self_attn_layer_norm): LayerNorm((1024,), eps=1e-05, elementwise_affine=True)
[ INFO : 2024-09-26 00:10:44,299 ] -                 (fc1): Linear(in_features=1024, out_features=4096, bias=True)
[ INFO : 2024-09-26 00:10:44,299 ] -                 (fc2): Linear(in_features=4096, out_features=1024, bias=True)
[ INFO : 2024-09-26 00:10:44,299 ] -                 (final_layer_norm): LayerNorm((1024,), eps=1e-05, elementwise_affine=True)
[ INFO : 2024-09-26 00:10:44,299 ] -               )
[ INFO : 2024-09-26 00:10:44,300 ] -               (12): TransformerSentenceEncoderLayer(
[ INFO : 2024-09-26 00:10:44,300 ] -                 (self_attn): MultiheadAttention(
[ INFO : 2024-09-26 00:10:44,300 ] -                   (dropout_module): Dropout(p=0.0, inplace=False)
[ INFO : 2024-09-26 00:10:44,300 ] -                   (k_proj): Linear(in_features=1024, out_features=1024, bias=True)
[ INFO : 2024-09-26 00:10:44,300 ] -                   (v_proj): Linear(in_features=1024, out_features=1024, bias=True)
[ INFO : 2024-09-26 00:10:44,300 ] -                   (q_proj): Linear(in_features=1024, out_features=1024, bias=True)
[ INFO : 2024-09-26 00:10:44,300 ] -                   (out_proj): Linear(in_features=1024, out_features=1024, bias=True)
[ INFO : 2024-09-26 00:10:44,300 ] -                   (grep_linear): Linear(in_features=64, out_features=8, bias=True)
[ INFO : 2024-09-26 00:10:44,300 ] -                 )
[ INFO : 2024-09-26 00:10:44,300 ] -                 (dropout1): Dropout(p=0.0, inplace=False)
[ INFO : 2024-09-26 00:10:44,300 ] -                 (dropout2): Dropout(p=0.0, inplace=False)
[ INFO : 2024-09-26 00:10:44,300 ] -                 (dropout3): Dropout(p=0.0, inplace=False)
[ INFO : 2024-09-26 00:10:44,300 ] -                 (self_attn_layer_norm): LayerNorm((1024,), eps=1e-05, elementwise_affine=True)
[ INFO : 2024-09-26 00:10:44,300 ] -                 (fc1): Linear(in_features=1024, out_features=4096, bias=True)
[ INFO : 2024-09-26 00:10:44,300 ] -                 (fc2): Linear(in_features=4096, out_features=1024, bias=True)
[ INFO : 2024-09-26 00:10:44,300 ] -                 (final_layer_norm): LayerNorm((1024,), eps=1e-05, elementwise_affine=True)
[ INFO : 2024-09-26 00:10:44,300 ] -               )
[ INFO : 2024-09-26 00:10:44,300 ] -               (13): TransformerSentenceEncoderLayer(
[ INFO : 2024-09-26 00:10:44,300 ] -                 (self_attn): MultiheadAttention(
[ INFO : 2024-09-26 00:10:44,300 ] -                   (dropout_module): Dropout(p=0.0, inplace=False)
[ INFO : 2024-09-26 00:10:44,301 ] -                   (k_proj): Linear(in_features=1024, out_features=1024, bias=True)
[ INFO : 2024-09-26 00:10:44,301 ] -                   (v_proj): Linear(in_features=1024, out_features=1024, bias=True)
[ INFO : 2024-09-26 00:10:44,301 ] -                   (q_proj): Linear(in_features=1024, out_features=1024, bias=True)
[ INFO : 2024-09-26 00:10:44,301 ] -                   (out_proj): Linear(in_features=1024, out_features=1024, bias=True)
[ INFO : 2024-09-26 00:10:44,301 ] -                   (grep_linear): Linear(in_features=64, out_features=8, bias=True)
[ INFO : 2024-09-26 00:10:44,301 ] -                 )
[ INFO : 2024-09-26 00:10:44,301 ] -                 (dropout1): Dropout(p=0.0, inplace=False)
[ INFO : 2024-09-26 00:10:44,301 ] -                 (dropout2): Dropout(p=0.0, inplace=False)
[ INFO : 2024-09-26 00:10:44,301 ] -                 (dropout3): Dropout(p=0.0, inplace=False)
[ INFO : 2024-09-26 00:10:44,301 ] -                 (self_attn_layer_norm): LayerNorm((1024,), eps=1e-05, elementwise_affine=True)
[ INFO : 2024-09-26 00:10:44,301 ] -                 (fc1): Linear(in_features=1024, out_features=4096, bias=True)
[ INFO : 2024-09-26 00:10:44,301 ] -                 (fc2): Linear(in_features=4096, out_features=1024, bias=True)
[ INFO : 2024-09-26 00:10:44,301 ] -                 (final_layer_norm): LayerNorm((1024,), eps=1e-05, elementwise_affine=True)
[ INFO : 2024-09-26 00:10:44,301 ] -               )
[ INFO : 2024-09-26 00:10:44,301 ] -               (14): TransformerSentenceEncoderLayer(
[ INFO : 2024-09-26 00:10:44,301 ] -                 (self_attn): MultiheadAttention(
[ INFO : 2024-09-26 00:10:44,301 ] -                   (dropout_module): Dropout(p=0.0, inplace=False)
[ INFO : 2024-09-26 00:10:44,301 ] -                   (k_proj): Linear(in_features=1024, out_features=1024, bias=True)
[ INFO : 2024-09-26 00:10:44,301 ] -                   (v_proj): Linear(in_features=1024, out_features=1024, bias=True)
[ INFO : 2024-09-26 00:10:44,302 ] -                   (q_proj): Linear(in_features=1024, out_features=1024, bias=True)
[ INFO : 2024-09-26 00:10:44,302 ] -                   (out_proj): Linear(in_features=1024, out_features=1024, bias=True)
[ INFO : 2024-09-26 00:10:44,302 ] -                   (grep_linear): Linear(in_features=64, out_features=8, bias=True)
[ INFO : 2024-09-26 00:10:44,302 ] -                 )
[ INFO : 2024-09-26 00:10:44,302 ] -                 (dropout1): Dropout(p=0.0, inplace=False)
[ INFO : 2024-09-26 00:10:44,302 ] -                 (dropout2): Dropout(p=0.0, inplace=False)
[ INFO : 2024-09-26 00:10:44,302 ] -                 (dropout3): Dropout(p=0.0, inplace=False)
[ INFO : 2024-09-26 00:10:44,302 ] -                 (self_attn_layer_norm): LayerNorm((1024,), eps=1e-05, elementwise_affine=True)
[ INFO : 2024-09-26 00:10:44,302 ] -                 (fc1): Linear(in_features=1024, out_features=4096, bias=True)
[ INFO : 2024-09-26 00:10:44,302 ] -                 (fc2): Linear(in_features=4096, out_features=1024, bias=True)
[ INFO : 2024-09-26 00:10:44,302 ] -                 (final_layer_norm): LayerNorm((1024,), eps=1e-05, elementwise_affine=True)
[ INFO : 2024-09-26 00:10:44,302 ] -               )
[ INFO : 2024-09-26 00:10:44,302 ] -               (15): TransformerSentenceEncoderLayer(
[ INFO : 2024-09-26 00:10:44,302 ] -                 (self_attn): MultiheadAttention(
[ INFO : 2024-09-26 00:10:44,302 ] -                   (dropout_module): Dropout(p=0.0, inplace=False)
[ INFO : 2024-09-26 00:10:44,302 ] -                   (k_proj): Linear(in_features=1024, out_features=1024, bias=True)
[ INFO : 2024-09-26 00:10:44,303 ] -                   (v_proj): Linear(in_features=1024, out_features=1024, bias=True)
[ INFO : 2024-09-26 00:10:44,303 ] -                   (q_proj): Linear(in_features=1024, out_features=1024, bias=True)
[ INFO : 2024-09-26 00:10:44,303 ] -                   (out_proj): Linear(in_features=1024, out_features=1024, bias=True)
[ INFO : 2024-09-26 00:10:44,303 ] -                   (grep_linear): Linear(in_features=64, out_features=8, bias=True)
[ INFO : 2024-09-26 00:10:44,303 ] -                 )
[ INFO : 2024-09-26 00:10:44,303 ] -                 (dropout1): Dropout(p=0.0, inplace=False)
[ INFO : 2024-09-26 00:10:44,303 ] -                 (dropout2): Dropout(p=0.0, inplace=False)
[ INFO : 2024-09-26 00:10:44,303 ] -                 (dropout3): Dropout(p=0.0, inplace=False)
[ INFO : 2024-09-26 00:10:44,303 ] -                 (self_attn_layer_norm): LayerNorm((1024,), eps=1e-05, elementwise_affine=True)
[ INFO : 2024-09-26 00:10:44,303 ] -                 (fc1): Linear(in_features=1024, out_features=4096, bias=True)
[ INFO : 2024-09-26 00:10:44,303 ] -                 (fc2): Linear(in_features=4096, out_features=1024, bias=True)
[ INFO : 2024-09-26 00:10:44,303 ] -                 (final_layer_norm): LayerNorm((1024,), eps=1e-05, elementwise_affine=True)
[ INFO : 2024-09-26 00:10:44,303 ] -               )
[ INFO : 2024-09-26 00:10:44,303 ] -               (16): TransformerSentenceEncoderLayer(
[ INFO : 2024-09-26 00:10:44,303 ] -                 (self_attn): MultiheadAttention(
[ INFO : 2024-09-26 00:10:44,303 ] -                   (dropout_module): Dropout(p=0.0, inplace=False)
[ INFO : 2024-09-26 00:10:44,303 ] -                   (k_proj): Linear(in_features=1024, out_features=1024, bias=True)
[ INFO : 2024-09-26 00:10:44,303 ] -                   (v_proj): Linear(in_features=1024, out_features=1024, bias=True)
[ INFO : 2024-09-26 00:10:44,304 ] -                   (q_proj): Linear(in_features=1024, out_features=1024, bias=True)
[ INFO : 2024-09-26 00:10:44,304 ] -                   (out_proj): Linear(in_features=1024, out_features=1024, bias=True)
[ INFO : 2024-09-26 00:10:44,304 ] -                   (grep_linear): Linear(in_features=64, out_features=8, bias=True)
[ INFO : 2024-09-26 00:10:44,304 ] -                 )
[ INFO : 2024-09-26 00:10:44,304 ] -                 (dropout1): Dropout(p=0.0, inplace=False)
[ INFO : 2024-09-26 00:10:44,304 ] -                 (dropout2): Dropout(p=0.0, inplace=False)
[ INFO : 2024-09-26 00:10:44,304 ] -                 (dropout3): Dropout(p=0.0, inplace=False)
[ INFO : 2024-09-26 00:10:44,304 ] -                 (self_attn_layer_norm): LayerNorm((1024,), eps=1e-05, elementwise_affine=True)
[ INFO : 2024-09-26 00:10:44,304 ] -                 (fc1): Linear(in_features=1024, out_features=4096, bias=True)
[ INFO : 2024-09-26 00:10:44,304 ] -                 (fc2): Linear(in_features=4096, out_features=1024, bias=True)
[ INFO : 2024-09-26 00:10:44,304 ] -                 (final_layer_norm): LayerNorm((1024,), eps=1e-05, elementwise_affine=True)
[ INFO : 2024-09-26 00:10:44,304 ] -               )
[ INFO : 2024-09-26 00:10:44,304 ] -               (17): TransformerSentenceEncoderLayer(
[ INFO : 2024-09-26 00:10:44,304 ] -                 (self_attn): MultiheadAttention(
[ INFO : 2024-09-26 00:10:44,304 ] -                   (dropout_module): Dropout(p=0.0, inplace=False)
[ INFO : 2024-09-26 00:10:44,304 ] -                   (k_proj): Linear(in_features=1024, out_features=1024, bias=True)
[ INFO : 2024-09-26 00:10:44,304 ] -                   (v_proj): Linear(in_features=1024, out_features=1024, bias=True)
[ INFO : 2024-09-26 00:10:44,305 ] -                   (q_proj): Linear(in_features=1024, out_features=1024, bias=True)
[ INFO : 2024-09-26 00:10:44,305 ] -                   (out_proj): Linear(in_features=1024, out_features=1024, bias=True)
[ INFO : 2024-09-26 00:10:44,305 ] -                   (grep_linear): Linear(in_features=64, out_features=8, bias=True)
[ INFO : 2024-09-26 00:10:44,305 ] -                 )
[ INFO : 2024-09-26 00:10:44,305 ] -                 (dropout1): Dropout(p=0.0, inplace=False)
[ INFO : 2024-09-26 00:10:44,305 ] -                 (dropout2): Dropout(p=0.0, inplace=False)
[ INFO : 2024-09-26 00:10:44,305 ] -                 (dropout3): Dropout(p=0.0, inplace=False)
[ INFO : 2024-09-26 00:10:44,305 ] -                 (self_attn_layer_norm): LayerNorm((1024,), eps=1e-05, elementwise_affine=True)
[ INFO : 2024-09-26 00:10:44,305 ] -                 (fc1): Linear(in_features=1024, out_features=4096, bias=True)
[ INFO : 2024-09-26 00:10:44,305 ] -                 (fc2): Linear(in_features=4096, out_features=1024, bias=True)
[ INFO : 2024-09-26 00:10:44,305 ] -                 (final_layer_norm): LayerNorm((1024,), eps=1e-05, elementwise_affine=True)
[ INFO : 2024-09-26 00:10:44,305 ] -               )
[ INFO : 2024-09-26 00:10:44,305 ] -               (18): TransformerSentenceEncoderLayer(
[ INFO : 2024-09-26 00:10:44,305 ] -                 (self_attn): MultiheadAttention(
[ INFO : 2024-09-26 00:10:44,305 ] -                   (dropout_module): Dropout(p=0.0, inplace=False)
[ INFO : 2024-09-26 00:10:44,305 ] -                   (k_proj): Linear(in_features=1024, out_features=1024, bias=True)
[ INFO : 2024-09-26 00:10:44,305 ] -                   (v_proj): Linear(in_features=1024, out_features=1024, bias=True)
[ INFO : 2024-09-26 00:10:44,306 ] -                   (q_proj): Linear(in_features=1024, out_features=1024, bias=True)
[ INFO : 2024-09-26 00:10:44,306 ] -                   (out_proj): Linear(in_features=1024, out_features=1024, bias=True)
[ INFO : 2024-09-26 00:10:44,306 ] -                   (grep_linear): Linear(in_features=64, out_features=8, bias=True)
[ INFO : 2024-09-26 00:10:44,306 ] -                 )
[ INFO : 2024-09-26 00:10:44,306 ] -                 (dropout1): Dropout(p=0.0, inplace=False)
[ INFO : 2024-09-26 00:10:44,306 ] -                 (dropout2): Dropout(p=0.0, inplace=False)
[ INFO : 2024-09-26 00:10:44,306 ] -                 (dropout3): Dropout(p=0.0, inplace=False)
[ INFO : 2024-09-26 00:10:44,306 ] -                 (self_attn_layer_norm): LayerNorm((1024,), eps=1e-05, elementwise_affine=True)
[ INFO : 2024-09-26 00:10:44,306 ] -                 (fc1): Linear(in_features=1024, out_features=4096, bias=True)
[ INFO : 2024-09-26 00:10:44,306 ] -                 (fc2): Linear(in_features=4096, out_features=1024, bias=True)
[ INFO : 2024-09-26 00:10:44,306 ] -                 (final_layer_norm): LayerNorm((1024,), eps=1e-05, elementwise_affine=True)
[ INFO : 2024-09-26 00:10:44,306 ] -               )
[ INFO : 2024-09-26 00:10:44,306 ] -               (19): TransformerSentenceEncoderLayer(
[ INFO : 2024-09-26 00:10:44,306 ] -                 (self_attn): MultiheadAttention(
[ INFO : 2024-09-26 00:10:44,306 ] -                   (dropout_module): Dropout(p=0.0, inplace=False)
[ INFO : 2024-09-26 00:10:44,306 ] -                   (k_proj): Linear(in_features=1024, out_features=1024, bias=True)
[ INFO : 2024-09-26 00:10:44,306 ] -                   (v_proj): Linear(in_features=1024, out_features=1024, bias=True)
[ INFO : 2024-09-26 00:10:44,306 ] -                   (q_proj): Linear(in_features=1024, out_features=1024, bias=True)
[ INFO : 2024-09-26 00:10:44,306 ] -                   (out_proj): Linear(in_features=1024, out_features=1024, bias=True)
[ INFO : 2024-09-26 00:10:44,307 ] -                   (grep_linear): Linear(in_features=64, out_features=8, bias=True)
[ INFO : 2024-09-26 00:10:44,307 ] -                 )
[ INFO : 2024-09-26 00:10:44,307 ] -                 (dropout1): Dropout(p=0.0, inplace=False)
[ INFO : 2024-09-26 00:10:44,307 ] -                 (dropout2): Dropout(p=0.0, inplace=False)
[ INFO : 2024-09-26 00:10:44,307 ] -                 (dropout3): Dropout(p=0.0, inplace=False)
[ INFO : 2024-09-26 00:10:44,307 ] -                 (self_attn_layer_norm): LayerNorm((1024,), eps=1e-05, elementwise_affine=True)
[ INFO : 2024-09-26 00:10:44,307 ] -                 (fc1): Linear(in_features=1024, out_features=4096, bias=True)
[ INFO : 2024-09-26 00:10:44,307 ] -                 (fc2): Linear(in_features=4096, out_features=1024, bias=True)
[ INFO : 2024-09-26 00:10:44,307 ] -                 (final_layer_norm): LayerNorm((1024,), eps=1e-05, elementwise_affine=True)
[ INFO : 2024-09-26 00:10:44,307 ] -               )
[ INFO : 2024-09-26 00:10:44,307 ] -               (20): TransformerSentenceEncoderLayer(
[ INFO : 2024-09-26 00:10:44,307 ] -                 (self_attn): MultiheadAttention(
[ INFO : 2024-09-26 00:10:44,307 ] -                   (dropout_module): Dropout(p=0.0, inplace=False)
[ INFO : 2024-09-26 00:10:44,307 ] -                   (k_proj): Linear(in_features=1024, out_features=1024, bias=True)
[ INFO : 2024-09-26 00:10:44,307 ] -                   (v_proj): Linear(in_features=1024, out_features=1024, bias=True)
[ INFO : 2024-09-26 00:10:44,307 ] -                   (q_proj): Linear(in_features=1024, out_features=1024, bias=True)
[ INFO : 2024-09-26 00:10:44,307 ] -                   (out_proj): Linear(in_features=1024, out_features=1024, bias=True)
[ INFO : 2024-09-26 00:10:44,307 ] -                   (grep_linear): Linear(in_features=64, out_features=8, bias=True)
[ INFO : 2024-09-26 00:10:44,307 ] -                 )
[ INFO : 2024-09-26 00:10:44,308 ] -                 (dropout1): Dropout(p=0.0, inplace=False)
[ INFO : 2024-09-26 00:10:44,308 ] -                 (dropout2): Dropout(p=0.0, inplace=False)
[ INFO : 2024-09-26 00:10:44,308 ] -                 (dropout3): Dropout(p=0.0, inplace=False)
[ INFO : 2024-09-26 00:10:44,308 ] -                 (self_attn_layer_norm): LayerNorm((1024,), eps=1e-05, elementwise_affine=True)
[ INFO : 2024-09-26 00:10:44,308 ] -                 (fc1): Linear(in_features=1024, out_features=4096, bias=True)
[ INFO : 2024-09-26 00:10:44,308 ] -                 (fc2): Linear(in_features=4096, out_features=1024, bias=True)
[ INFO : 2024-09-26 00:10:44,308 ] -                 (final_layer_norm): LayerNorm((1024,), eps=1e-05, elementwise_affine=True)
[ INFO : 2024-09-26 00:10:44,308 ] -               )
[ INFO : 2024-09-26 00:10:44,308 ] -               (21): TransformerSentenceEncoderLayer(
[ INFO : 2024-09-26 00:10:44,308 ] -                 (self_attn): MultiheadAttention(
[ INFO : 2024-09-26 00:10:44,308 ] -                   (dropout_module): Dropout(p=0.0, inplace=False)
[ INFO : 2024-09-26 00:10:44,308 ] -                   (k_proj): Linear(in_features=1024, out_features=1024, bias=True)
[ INFO : 2024-09-26 00:10:44,308 ] -                   (v_proj): Linear(in_features=1024, out_features=1024, bias=True)
[ INFO : 2024-09-26 00:10:44,308 ] -                   (q_proj): Linear(in_features=1024, out_features=1024, bias=True)
[ INFO : 2024-09-26 00:10:44,308 ] -                   (out_proj): Linear(in_features=1024, out_features=1024, bias=True)
[ INFO : 2024-09-26 00:10:44,308 ] -                   (grep_linear): Linear(in_features=64, out_features=8, bias=True)
[ INFO : 2024-09-26 00:10:44,308 ] -                 )
[ INFO : 2024-09-26 00:10:44,308 ] -                 (dropout1): Dropout(p=0.0, inplace=False)
[ INFO : 2024-09-26 00:10:44,308 ] -                 (dropout2): Dropout(p=0.0, inplace=False)
[ INFO : 2024-09-26 00:10:44,309 ] -                 (dropout3): Dropout(p=0.0, inplace=False)
[ INFO : 2024-09-26 00:10:44,309 ] -                 (self_attn_layer_norm): LayerNorm((1024,), eps=1e-05, elementwise_affine=True)
[ INFO : 2024-09-26 00:10:44,309 ] -                 (fc1): Linear(in_features=1024, out_features=4096, bias=True)
[ INFO : 2024-09-26 00:10:44,309 ] -                 (fc2): Linear(in_features=4096, out_features=1024, bias=True)
[ INFO : 2024-09-26 00:10:44,309 ] -                 (final_layer_norm): LayerNorm((1024,), eps=1e-05, elementwise_affine=True)
[ INFO : 2024-09-26 00:10:44,309 ] -               )
[ INFO : 2024-09-26 00:10:44,309 ] -               (22): TransformerSentenceEncoderLayer(
[ INFO : 2024-09-26 00:10:44,309 ] -                 (self_attn): MultiheadAttention(
[ INFO : 2024-09-26 00:10:44,309 ] -                   (dropout_module): Dropout(p=0.0, inplace=False)
[ INFO : 2024-09-26 00:10:44,309 ] -                   (k_proj): Linear(in_features=1024, out_features=1024, bias=True)
[ INFO : 2024-09-26 00:10:44,309 ] -                   (v_proj): Linear(in_features=1024, out_features=1024, bias=True)
[ INFO : 2024-09-26 00:10:44,309 ] -                   (q_proj): Linear(in_features=1024, out_features=1024, bias=True)
[ INFO : 2024-09-26 00:10:44,309 ] -                   (out_proj): Linear(in_features=1024, out_features=1024, bias=True)
[ INFO : 2024-09-26 00:10:44,309 ] -                   (grep_linear): Linear(in_features=64, out_features=8, bias=True)
[ INFO : 2024-09-26 00:10:44,309 ] -                 )
[ INFO : 2024-09-26 00:10:44,309 ] -                 (dropout1): Dropout(p=0.0, inplace=False)
[ INFO : 2024-09-26 00:10:44,309 ] -                 (dropout2): Dropout(p=0.0, inplace=False)
[ INFO : 2024-09-26 00:10:44,309 ] -                 (dropout3): Dropout(p=0.0, inplace=False)
[ INFO : 2024-09-26 00:10:44,310 ] -                 (self_attn_layer_norm): LayerNorm((1024,), eps=1e-05, elementwise_affine=True)
[ INFO : 2024-09-26 00:10:44,310 ] -                 (fc1): Linear(in_features=1024, out_features=4096, bias=True)
[ INFO : 2024-09-26 00:10:44,310 ] -                 (fc2): Linear(in_features=4096, out_features=1024, bias=True)
[ INFO : 2024-09-26 00:10:44,310 ] -                 (final_layer_norm): LayerNorm((1024,), eps=1e-05, elementwise_affine=True)
[ INFO : 2024-09-26 00:10:44,310 ] -               )
[ INFO : 2024-09-26 00:10:44,310 ] -               (23): TransformerSentenceEncoderLayer(
[ INFO : 2024-09-26 00:10:44,310 ] -                 (self_attn): MultiheadAttention(
[ INFO : 2024-09-26 00:10:44,310 ] -                   (dropout_module): Dropout(p=0.0, inplace=False)
[ INFO : 2024-09-26 00:10:44,310 ] -                   (k_proj): Linear(in_features=1024, out_features=1024, bias=True)
[ INFO : 2024-09-26 00:10:44,310 ] -                   (v_proj): Linear(in_features=1024, out_features=1024, bias=True)
[ INFO : 2024-09-26 00:10:44,310 ] -                   (q_proj): Linear(in_features=1024, out_features=1024, bias=True)
[ INFO : 2024-09-26 00:10:44,310 ] -                   (out_proj): Linear(in_features=1024, out_features=1024, bias=True)
[ INFO : 2024-09-26 00:10:44,310 ] -                   (grep_linear): Linear(in_features=64, out_features=8, bias=True)
[ INFO : 2024-09-26 00:10:44,310 ] -                 )
[ INFO : 2024-09-26 00:10:44,310 ] -                 (dropout1): Dropout(p=0.0, inplace=False)
[ INFO : 2024-09-26 00:10:44,310 ] -                 (dropout2): Dropout(p=0.0, inplace=False)
[ INFO : 2024-09-26 00:10:44,310 ] -                 (dropout3): Dropout(p=0.0, inplace=False)
[ INFO : 2024-09-26 00:10:44,310 ] -                 (self_attn_layer_norm): LayerNorm((1024,), eps=1e-05, elementwise_affine=True)
[ INFO : 2024-09-26 00:10:44,310 ] -                 (fc1): Linear(in_features=1024, out_features=4096, bias=True)
[ INFO : 2024-09-26 00:10:44,310 ] -                 (fc2): Linear(in_features=4096, out_features=1024, bias=True)
[ INFO : 2024-09-26 00:10:44,311 ] -                 (final_layer_norm): LayerNorm((1024,), eps=1e-05, elementwise_affine=True)
[ INFO : 2024-09-26 00:10:44,311 ] -               )
[ INFO : 2024-09-26 00:10:44,311 ] -             )
[ INFO : 2024-09-26 00:10:44,311 ] -             (layer_norm): LayerNorm((1024,), eps=1e-05, elementwise_affine=True)
[ INFO : 2024-09-26 00:10:44,311 ] -           )
[ INFO : 2024-09-26 00:10:44,311 ] -           (layer_norm): LayerNorm((512,), eps=1e-05, elementwise_affine=True)
[ INFO : 2024-09-26 00:10:44,311 ] -         )
[ INFO : 2024-09-26 00:10:44,311 ] -       )
[ INFO : 2024-09-26 00:10:44,311 ] -     )
[ INFO : 2024-09-26 00:10:44,311 ] -     (featurizer): Featurizer()
[ INFO : 2024-09-26 00:10:44,311 ] -   )
[ INFO : 2024-09-26 00:10:44,311 ] -   (projection): ArcMarginProduct_intertopk_subcenter(in_features=192, out_features=17982, scale=32.0, margin=0.0, easy_margin=False,K=3, mp=0.06, k_top=5, do_lm=False)
…
