…
 True}
[ INFO : 2024-09-25 10:44:59,947 ] - Train model from scratch ...
[ INFO : 2024-09-25 10:44:59,948 ] - Train model from scratch ...
[ INFO : 2024-09-25 10:44:59,957 ] - speaker_model size: 324060505
[ INFO : 2024-09-25 10:44:59,957 ] - Train model from scratch ...
[ INFO : 2024-09-25 10:44:59,975 ] - Train model from scratch ...
[ INFO : 2024-09-25 10:44:59,992 ] - start_epoch: 1
[ INFO : 2024-09-25 10:44:59,993 ] - start_epoch: 1
[ INFO : 2024-09-25 10:45:00,003 ] - ECAPA_TDNN(
[ INFO : 2024-09-25 10:45:00,003 ] -   (layer1): Conv1dReluBn(
[ INFO : 2024-09-25 10:45:00,004 ] -     (conv): Conv1d(1024, 512, kernel_size=(5,), stride=(1,), padding=(2,))
[ INFO : 2024-09-25 10:45:00,004 ] -     (bn): BatchNorm1d(512, eps=1e-05, momentum=0.1, affine=True, track_running_stats=True)
[ INFO : 2024-09-25 10:45:00,004 ] -   )
[ INFO : 2024-09-25 10:45:00,004 ] -   (layer2): SE_Res2Block(
[ INFO : 2024-09-25 10:45:00,004 ] -     (se_res2block): Sequential(
[ INFO : 2024-09-25 10:45:00,004 ] -       (0): Conv1dReluBn(
[ INFO : 2024-09-25 10:45:00,004 ] -         (conv): Conv1d(512, 512, kernel_size=(1,), stride=(1,))
[ INFO : 2024-09-25 10:45:00,004 ] -         (bn): BatchNorm1d(512, eps=1e-05, momentum=0.1, affine=True, track_running_stats=True)
[ INFO : 2024-09-25 10:45:00,004 ] -       )
[ INFO : 2024-09-25 10:45:00,004 ] -       (1): Res2Conv1dReluBn(
[ INFO : 2024-09-25 10:45:00,004 ] -         (convs): ModuleList(
[ INFO : 2024-09-25 10:45:00,004 ] -           (0): Conv1d(64, 64, kernel_size=(3,), stride=(1,), padding=(2,), dilation=(2,))
[ INFO : 2024-09-25 10:45:00,004 ] -           (1): Conv1d(64, 64, kernel_size=(3,), stride=(1,), padding=(2,), dilation=(2,))
[ INFO : 2024-09-25 10:45:00,004 ] -           (2): Conv1d(64, 64, kernel_size=(3,), stride=(1,), padding=(2,), dilation=(2,))
[ INFO : 2024-09-25 10:45:00,004 ] -           (3): Conv1d(64, 64, kernel_size=(3,), stride=(1,), padding=(2,), dilation=(2,))
[ INFO : 2024-09-25 10:45:00,004 ] -           (4): Conv1d(64, 64, kernel_size=(3,), stride=(1,), padding=(2,), dilation=(2,))
[ INFO : 2024-09-25 10:45:00,004 ] -           (5): Conv1d(64, 64, kernel_size=(3,), stride=(1,), padding=(2,), dilation=(2,))
[ INFO : 2024-09-25 10:45:00,004 ] -           (6): Conv1d(64, 64, kernel_size=(3,), stride=(1,), padding=(2,), dilation=(2,))
[ INFO : 2024-09-25 10:45:00,004 ] -         )
[ INFO : 2024-09-25 10:45:00,004 ] -         (bns): ModuleList(
[ INFO : 2024-09-25 10:45:00,004 ] -           (0): BatchNorm1d(64, eps=1e-05, momentum=0.1, affine=True, track_running_stats=True)
[ INFO : 2024-09-25 10:45:00,004 ] -           (1): BatchNorm1d(64, eps=1e-05, momentum=0.1, affine=True, track_running_stats=True)
[ INFO : 2024-09-25 10:45:00,004 ] -           (2): BatchNorm1d(64, eps=1e-05, momentum=0.1, affine=True, track_running_stats=True)
[ INFO : 2024-09-25 10:45:00,004 ] -           (3): BatchNorm1d(64, eps=1e-05, momentum=0.1, affine=True, track_running_stats=True)
[ INFO : 2024-09-25 10:45:00,004 ] -           (4): BatchNorm1d(64, eps=1e-05, momentum=0.1, affine=True, track_running_stats=True)
[ INFO : 2024-09-25 10:45:00,004 ] -           (5): BatchNorm1d(64, eps=1e-05, momentum=0.1, affine=True, track_running_stats=True)
[ INFO : 2024-09-25 10:45:00,004 ] -           (6): BatchNorm1d(64, eps=1e-05, momentum=0.1, affine=True, track_running_stats=True)
[ INFO : 2024-09-25 10:45:00,004 ] -         )
[ INFO : 2024-09-25 10:45:00,004 ] -       )
[ INFO : 2024-09-25 10:45:00,004 ] -       (2): Conv1dReluBn(
[ INFO : 2024-09-25 10:45:00,005 ] -         (conv): Conv1d(512, 512, kernel_size=(1,), stride=(1,))
[ INFO : 2024-09-25 10:45:00,005 ] -         (bn): BatchNorm1d(512, eps=1e-05, momentum=0.1, affine=True, track_running_stats=True)
[ INFO : 2024-09-25 10:45:00,005 ] -       )
[ INFO : 2024-09-25 10:45:00,005 ] -       (3): SE_Connect(
[ INFO : 2024-09-25 10:45:00,005 ] -         (linear1): Linear(in_features=512, out_features=128, bias=True)
[ INFO : 2024-09-25 10:45:00,005 ] -         (linear2): Linear(in_features=128, out_features=512, bias=True)
[ INFO : 2024-09-25 10:45:00,005 ] -       )
[ INFO : 2024-09-25 10:45:00,005 ] -     )
[ INFO : 2024-09-25 10:45:00,005 ] -   )
[ INFO : 2024-09-25 10:45:00,005 ] -   (layer3): SE_Res2Block(
[ INFO : 2024-09-25 10:45:00,005 ] -     (se_res2block): Sequential(
[ INFO : 2024-09-25 10:45:00,005 ] -       (0): Conv1dReluBn(
[ INFO : 2024-09-25 10:45:00,005 ] -         (conv): Conv1d(512, 512, kernel_size=(1,), stride=(1,))
[ INFO : 2024-09-25 10:45:00,005 ] -         (bn): BatchNorm1d(512, eps=1e-05, momentum=0.1, affine=True, track_running_stats=True)
[ INFO : 2024-09-25 10:45:00,005 ] -       )
[ INFO : 2024-09-25 10:45:00,005 ] -       (1): Res2Conv1dReluBn(
[ INFO : 2024-09-25 10:45:00,005 ] -         (convs): ModuleList(
[ INFO : 2024-09-25 10:45:00,005 ] -           (0): Conv1d(64, 64, kernel_size=(3,), stride=(1,), padding=(3,), dilation=(3,))
[ INFO : 2024-09-25 10:45:00,005 ] -           (1): Conv1d(64, 64, kernel_size=(3,), stride=(1,), padding=(3,), dilation=(3,))
[ INFO : 2024-09-25 10:45:00,005 ] -           (2): Conv1d(64, 64, kernel_size=(3,), stride=(1,), padding=(3,), dilation=(3,))
[ INFO : 2024-09-25 10:45:00,005 ] -           (3): Conv1d(64, 64, kernel_size=(3,), stride=(1,), padding=(3,), dilation=(3,))
[ INFO : 2024-09-25 10:45:00,005 ] -           (4): Conv1d(64, 64, kernel_size=(3,), stride=(1,), padding=(3,), dilation=(3,))
[ INFO : 2024-09-25 10:45:00,005 ] -           (5): Conv1d(64, 64, kernel_size=(3,), stride=(1,), padding=(3,), dilation=(3,))
[ INFO : 2024-09-25 10:45:00,005 ] -           (6): Conv1d(64, 64, kernel_size=(3,), stride=(1,), padding=(3,), dilation=(3,))
[ INFO : 2024-09-25 10:45:00,005 ] -         )
[ INFO : 2024-09-25 10:45:00,005 ] -         (bns): ModuleList(
[ INFO : 2024-09-25 10:45:00,005 ] -           (0): BatchNorm1d(64, eps=1e-05, momentum=0.1, affine=True, track_running_stats=True)
[ INFO : 2024-09-25 10:45:00,005 ] -           (1): BatchNorm1d(64, eps=1e-05, momentum=0.1, affine=True, track_running_stats=True)
[ INFO : 2024-09-25 10:45:00,005 ] -           (2): BatchNorm1d(64, eps=1e-05, momentum=0.1, affine=True, track_running_stats=True)
[ INFO : 2024-09-25 10:45:00,005 ] -           (3): BatchNorm1d(64, eps=1e-05, momentum=0.1, affine=True, track_running_stats=True)
[ INFO : 2024-09-25 10:45:00,005 ] -           (4): BatchNorm1d(64, eps=1e-05, momentum=0.1, affine=True, track_running_stats=True)
[ INFO : 2024-09-25 10:45:00,006 ] -           (5): BatchNorm1d(64, eps=1e-05, momentum=0.1, affine=True, track_running_stats=True)
[ INFO : 2024-09-25 10:45:00,006 ] -           (6): BatchNorm1d(64, eps=1e-05, momentum=0.1, affine=True, track_running_stats=True)
[ INFO : 2024-09-25 10:45:00,006 ] -         )
[ INFO : 2024-09-25 10:45:00,006 ] -       )
[ INFO : 2024-09-25 10:45:00,006 ] -       (2): Conv1dReluBn(
[ INFO : 2024-09-25 10:45:00,006 ] -         (conv): Conv1d(512, 512, kernel_size=(1,), stride=(1,))
[ INFO : 2024-09-25 10:45:00,006 ] -         (bn): BatchNorm1d(512, eps=1e-05, momentum=0.1, affine=True, track_running_stats=True)
[ INFO : 2024-09-25 10:45:00,006 ] -       )
[ INFO : 2024-09-25 10:45:00,006 ] -       (3): SE_Connect(
[ INFO : 2024-09-25 10:45:00,006 ] -         (linear1): Linear(in_features=512, out_features=128, bias=True)
[ INFO : 2024-09-25 10:45:00,006 ] -         (linear2): Linear(in_features=128, out_features=512, bias=True)
[ INFO : 2024-09-25 10:45:00,006 ] -       )
[ INFO : 2024-09-25 10:45:00,006 ] -     )
[ INFO : 2024-09-25 10:45:00,006 ] -   )
[ INFO : 2024-09-25 10:45:00,006 ] -   (layer4): SE_Res2Block(
[ INFO : 2024-09-25 10:45:00,006 ] -     (se_res2block): Sequential(
[ INFO : 2024-09-25 10:45:00,006 ] -       (0): Conv1dReluBn(
[ INFO : 2024-09-25 10:45:00,006 ] -         (conv): Conv1d(512, 512, kernel_size=(1,), stride=(1,))
[ INFO : 2024-09-25 10:45:00,006 ] -         (bn): BatchNorm1d(512, eps=1e-05, momentum=0.1, affine=True, track_running_stats=True)
[ INFO : 2024-09-25 10:45:00,006 ] -       )
[ INFO : 2024-09-25 10:45:00,006 ] -       (1): Res2Conv1dReluBn(
[ INFO : 2024-09-25 10:45:00,006 ] -         (convs): ModuleList(
[ INFO : 2024-09-25 10:45:00,006 ] -           (0): Conv1d(64, 64, kernel_size=(3,), stride=(1,), padding=(4,), dilation=(4,))
[ INFO : 2024-09-25 10:45:00,006 ] -           (1): Conv1d(64, 64, kernel_size=(3,), stride=(1,), padding=(4,), dilation=(4,))
[ INFO : 2024-09-25 10:45:00,006 ] -           (2): Conv1d(64, 64, kernel_size=(3,), stride=(1,), padding=(4,), dilation=(4,))
[ INFO : 2024-09-25 10:45:00,006 ] -           (3): Conv1d(64, 64, kernel_size=(3,), stride=(1,), padding=(4,), dilation=(4,))
[ INFO : 2024-09-25 10:45:00,006 ] -           (4): Conv1d(64, 64, kernel_size=(3,), stride=(1,), padding=(4,), dilation=(4,))
[ INFO : 2024-09-25 10:45:00,006 ] -           (5): Conv1d(64, 64, kernel_size=(3,), stride=(1,), padding=(4,), dilation=(4,))
[ INFO : 2024-09-25 10:45:00,006 ] -           (6): Conv1d(64, 64, kernel_size=(3,), stride=(1,), padding=(4,), dilation=(4,))
[ INFO : 2024-09-25 10:45:00,006 ] -         )
[ INFO : 2024-09-25 10:45:00,006 ] -         (bns): ModuleList(
[ INFO : 2024-09-25 10:45:00,007 ] -           (0): BatchNorm1d(64, eps=1e-05, momentum=0.1, affine=True, track_running_stats=True)
[ INFO : 2024-09-25 10:45:00,007 ] -           (1): BatchNorm1d(64, eps=1e-05, momentum=0.1, affine=True, track_running_stats=True)
[ INFO : 2024-09-25 10:45:00,007 ] -           (2): BatchNorm1d(64, eps=1e-05, momentum=0.1, affine=True, track_running_stats=True)
[ INFO : 2024-09-25 10:45:00,007 ] -           (3): BatchNorm1d(64, eps=1e-05, momentum=0.1, affine=True, track_running_stats=True)
[ INFO : 2024-09-25 10:45:00,007 ] -           (4): BatchNorm1d(64, eps=1e-05, momentum=0.1, affine=True, track_running_stats=True)
[ INFO : 2024-09-25 10:45:00,007 ] -           (5): BatchNorm1d(64, eps=1e-05, momentum=0.1, affine=True, track_running_stats=True)
[ INFO : 2024-09-25 10:45:00,007 ] -           (6): BatchNorm1d(64, eps=1e-05, momentum=0.1, affine=True, track_running_stats=True)
[ INFO : 2024-09-25 10:45:00,007 ] -         )
[ INFO : 2024-09-25 10:45:00,007 ] -       )
[ INFO : 2024-09-25 10:45:00,007 ] -       (2): Conv1dReluBn(
[ INFO : 2024-09-25 10:45:00,007 ] -         (conv): Conv1d(512, 512, kernel_size=(1,), stride=(1,))
[ INFO : 2024-09-25 10:45:00,007 ] -         (bn): BatchNorm1d(512, eps=1e-05, momentum=0.1, affine=True, track_running_stats=True)
[ INFO : 2024-09-25 10:45:00,007 ] -       )
[ INFO : 2024-09-25 10:45:00,007 ] -       (3): SE_Connect(
[ INFO : 2024-09-25 10:45:00,007 ] -         (linear1): Linear(in_features=512, out_features=128, bias=True)
[ INFO : 2024-09-25 10:45:00,007 ] -         (linear2): Linear(in_features=128, out_features=512, bias=True)
[ INFO : 2024-09-25 10:45:00,007 ] -       )
[ INFO : 2024-09-25 10:45:00,007 ] -     )
[ INFO : 2024-09-25 10:45:00,007 ] -   )
[ INFO : 2024-09-25 10:45:00,007 ] -   (conv): Conv1d(1536, 1536, kernel_size=(1,), stride=(1,))
[ INFO : 2024-09-25 10:45:00,007 ] -   (pool): ASTP(
[ INFO : 2024-09-25 10:45:00,007 ] -     (linear1): Conv1d(4608, 128, kernel_size=(1,), stride=(1,))
[ INFO : 2024-09-25 10:45:00,007 ] -     (linear2): Conv1d(128, 1536, kernel_size=(1,), stride=(1,))
[ INFO : 2024-09-25 10:45:00,007 ] -   )
[ INFO : 2024-09-25 10:45:00,007 ] -   (bn): BatchNorm1d(3072, eps=1e-05, momentum=0.1, affine=True, track_running_stats=True)
[ INFO : 2024-09-25 10:45:00,007 ] -   (linear): Linear(in_features=3072, out_features=192, bias=True)
[ INFO : 2024-09-25 10:45:00,007 ] -   (bn2): Identity()
[ INFO : 2024-09-25 10:45:00,007 ] -   (frontend): S3prlFrontend(
[ INFO : 2024-09-25 10:45:00,007 ] -     (upstream): S3PRLUpstream(
[ INFO : 2024-09-25 10:45:00,007 ] -       (upstream): UpstreamExpert(
[ INFO : 2024-09-25 10:45:00,007 ] -         (model): WavLM(
[ INFO : 2024-09-25 10:45:00,007 ] -           (feature_extractor): ConvFeatureExtractionModel(
[ INFO : 2024-09-25 10:45:00,008 ] -             (conv_layers): ModuleList(
[ INFO : 2024-09-25 10:45:00,008 ] -               (0): Sequential(
[ INFO : 2024-09-25 10:45:00,008 ] -                 (0): Conv1d(1, 512, kernel_size=(10,), stride=(5,), bias=False)
[ INFO : 2024-09-25 10:45:00,008 ] -                 (1): Dropout(p=0.0, inplace=False)
[ INFO : 2024-09-25 10:45:00,008 ] -                 (2): Sequential(
[ INFO : 2024-09-25 10:45:00,008 ] -                   (0): TransposeLast()
[ INFO : 2024-09-25 10:45:00,008 ] -                   (1): Fp32LayerNorm((512,), eps=1e-05, elementwise_affine=True)
[ INFO : 2024-09-25 10:45:00,008 ] -                   (2): TransposeLast()
[ INFO : 2024-09-25 10:45:00,008 ] -                 )
[ INFO : 2024-09-25 10:45:00,008 ] -                 (3): GELU(approximate='none')
[ INFO : 2024-09-25 10:45:00,008 ] -               )
[ INFO : 2024-09-25 10:45:00,008 ] -               (1): Sequential(
[ INFO : 2024-09-25 10:45:00,008 ] -                 (0): Conv1d(512, 512, kernel_size=(3,), stride=(2,), bias=False)
[ INFO : 2024-09-25 10:45:00,008 ] -                 (1): Dropout(p=0.0, inplace=False)
[ INFO : 2024-09-25 10:45:00,008 ] -                 (2): Sequential(
[ INFO : 2024-09-25 10:45:00,008 ] -                   (0): TransposeLast()
[ INFO : 2024-09-25 10:45:00,008 ] -                   (1): Fp32LayerNorm((512,), eps=1e-05, elementwise_affine=True)
[ INFO : 2024-09-25 10:45:00,008 ] -                   (2): TransposeLast()
[ INFO : 2024-09-25 10:45:00,008 ] -                 )
[ INFO : 2024-09-25 10:45:00,008 ] -                 (3): GELU(approximate='none')
[ INFO : 2024-09-25 10:45:00,008 ] -               )
[ INFO : 2024-09-25 10:45:00,008 ] -               (2): Sequential(
[ INFO : 2024-09-25 10:45:00,008 ] -                 (0): Conv1d(512, 512, kernel_size=(3,), stride=(2,), bias=False)
[ INFO : 2024-09-25 10:45:00,008 ] -                 (1): Dropout(p=0.0, inplace=False)
[ INFO : 2024-09-25 10:45:00,008 ] -                 (2): Sequential(
[ INFO : 2024-09-25 10:45:00,008 ] -                   (0): TransposeLast()
[ INFO : 2024-09-25 10:45:00,008 ] -                   (1): Fp32LayerNorm((512,), eps=1e-05, elementwise_affine=True)
[ INFO : 2024-09-25 10:45:00,008 ] -                   (2): TransposeLast()
[ INFO : 2024-09-25 10:45:00,008 ] -                 )
[ INFO : 2024-09-25 10:45:00,008 ] -                 (3): GELU(approximate='none')
[ INFO : 2024-09-25 10:45:00,008 ] -               )
[ INFO : 2024-09-25 10:45:00,008 ] -               (3): Sequential(
[ INFO : 2024-09-25 10:45:00,009 ] -                 (0): Conv1d(512, 512, kernel_size=(3,), stride=(2,), bias=False)
[ INFO : 2024-09-25 10:45:00,009 ] -                 (1): Dropout(p=0.0, inplace=False)
[ INFO : 2024-09-25 10:45:00,009 ] -                 (2): Sequential(
[ INFO : 2024-09-25 10:45:00,009 ] -                   (0): TransposeLast()
[ INFO : 2024-09-25 10:45:00,009 ] -                   (1): Fp32LayerNorm((512,), eps=1e-05, elementwise_affine=True)
[ INFO : 2024-09-25 10:45:00,009 ] -                   (2): TransposeLast()
[ INFO : 2024-09-25 10:45:00,009 ] -                 )
[ INFO : 2024-09-25 10:45:00,009 ] -                 (3): GELU(approximate='none')
[ INFO : 2024-09-25 10:45:00,009 ] -               )
[ INFO : 2024-09-25 10:45:00,009 ] -               (4): Sequential(
[ INFO : 2024-09-25 10:45:00,009 ] -                 (0): Conv1d(512, 512, kernel_size=(3,), stride=(2,), bias=False)
[ INFO : 2024-09-25 10:45:00,009 ] -                 (1): Dropout(p=0.0, inplace=False)
[ INFO : 2024-09-25 10:45:00,009 ] -                 (2): Sequential(
[ INFO : 2024-09-25 10:45:00,009 ] -                   (0): TransposeLast()
[ INFO : 2024-09-25 10:45:00,009 ] -                   (1): Fp32LayerNorm((512,), eps=1e-05, elementwise_affine=True)
[ INFO : 2024-09-25 10:45:00,009 ] -                   (2): TransposeLast()
[ INFO : 2024-09-25 10:45:00,009 ] -                 )
[ INFO : 2024-09-25 10:45:00,009 ] -                 (3): GELU(approximate='none')
[ INFO : 2024-09-25 10:45:00,009 ] -               )
[ INFO : 2024-09-25 10:45:00,009 ] -               (5): Sequential(
[ INFO : 2024-09-25 10:45:00,009 ] -                 (0): Conv1d(512, 512, kernel_size=(2,), stride=(2,), bias=False)
[ INFO : 2024-09-25 10:45:00,009 ] -                 (1): Dropout(p=0.0, inplace=False)
[ INFO : 2024-09-25 10:45:00,009 ] -                 (2): Sequential(
[ INFO : 2024-09-25 10:45:00,009 ] -                   (0): TransposeLast()
[ INFO : 2024-09-25 10:45:00,009 ] -                   (1): Fp32LayerNorm((512,), eps=1e-05, elementwise_affine=True)
[ INFO : 2024-09-25 10:45:00,009 ] -                   (2): TransposeLast()
[ INFO : 2024-09-25 10:45:00,009 ] -                 )
[ INFO : 2024-09-25 10:45:00,009 ] -                 (3): GELU(approximate='none')
[ INFO : 2024-09-25 10:45:00,009 ] -               )
[ INFO : 2024-09-25 10:45:00,009 ] -               (6): Sequential(
[ INFO : 2024-09-25 10:45:00,009 ] -                 (0): Conv1d(512, 512, kernel_size=(2,), stride=(2,), bias=False)
[ INFO : 2024-09-25 10:45:00,010 ] -                 (1): Dropout(p=0.0, inplace=False)
[ INFO : 2024-09-25 10:45:00,010 ] -                 (2): Sequential(
[ INFO : 2024-09-25 10:45:00,010 ] -                   (0): TransposeLast()
[ INFO : 2024-09-25 10:45:00,010 ] -                   (1): Fp32LayerNorm((512,), eps=1e-05, elementwise_affine=True)
[ INFO : 2024-09-25 10:45:00,010 ] -                   (2): TransposeLast()
[ INFO : 2024-09-25 10:45:00,010 ] -                 )
[ INFO : 2024-09-25 10:45:00,010 ] -                 (3): GELU(approximate='none')
[ INFO : 2024-09-25 10:45:00,010 ] -               )
[ INFO : 2024-09-25 10:45:00,010 ] -             )
[ INFO : 2024-09-25 10:45:00,010 ] -           )
[ INFO : 2024-09-25 10:45:00,010 ] -           (post_extract_proj): Linear(in_features=512, out_features=1024, bias=True)
[ INFO : 2024-09-25 10:45:00,010 ] -           (dropout_input): Dropout(p=0.0, inplace=False)
[ INFO : 2024-09-25 10:45:00,010 ] -           (dropout_features): Dropout(p=0.0, inplace=False)
[ INFO : 2024-09-25 10:45:00,010 ] -           (encoder): TransformerEncoder(
[ INFO : 2024-09-25 10:45:00,010 ] -             (pos_conv): Sequential(
[ INFO : 2024-09-25 10:45:00,010 ] -               (0): Conv1d(1024, 1024, kernel_size=(128,), stride=(1,), padding=(64,), groups=16)
[ INFO : 2024-09-25 10:45:00,010 ] -               (1): SamePad()
[ INFO : 2024-09-25 10:45:00,010 ] -               (2): GELU(approximate='none')
[ INFO : 2024-09-25 10:45:00,010 ] -             )
[ INFO : 2024-09-25 10:45:00,010 ] -             (layers): ModuleList(
[ INFO : 2024-09-25 10:45:00,010 ] -               (0): TransformerSentenceEncoderLayer(
[ INFO : 2024-09-25 10:45:00,010 ] -                 (self_attn): MultiheadAttention(
[ INFO : 2024-09-25 10:45:00,010 ] -                   (dropout_module): Dropout(p=0.0, inplace=False)
[ INFO : 2024-09-25 10:45:00,010 ] -                   (relative_attention_bias): Embedding(320, 16)
[ INFO : 2024-09-25 10:45:00,010 ] -                   (k_proj): Linear(in_features=1024, out_features=1024, bias=True)
[ INFO : 2024-09-25 10:45:00,010 ] -                   (v_proj): Linear(in_features=1024, out_features=1024, bias=True)
[ INFO : 2024-09-25 10:45:00,010 ] -                   (q_proj): Linear(in_features=1024, out_features=1024, bias=True)
[ INFO : 2024-09-25 10:45:00,010 ] -                   (out_proj): Linear(in_features=1024, out_features=1024, bias=True)
[ INFO : 2024-09-25 10:45:00,010 ] -                   (grep_linear): Linear(in_features=64, out_features=8, bias=True)
[ INFO : 2024-09-25 10:45:00,010 ] -                 )
[ INFO : 2024-09-25 10:45:00,010 ] -                 (dropout1): Dropout(p=0.0, inplace=False)
[ INFO : 2024-09-25 10:45:00,011 ] -                 (dropout2): Dropout(p=0.0, inplace=False)
[ INFO : 2024-09-25 10:45:00,011 ] -                 (dropout3): Dropout(p=0.0, inplace=False)
[ INFO : 2024-09-25 10:45:00,011 ] -                 (self_attn_layer_norm): LayerNorm((1024,), eps=1e-05, elementwise_affine=True)
[ INFO : 2024-09-25 10:45:00,011 ] -                 (fc1): Linear(in_features=1024, out_features=4096, bias=True)
[ INFO : 2024-09-25 10:45:00,011 ] -                 (fc2): Linear(in_features=4096, out_features=1024, bias=True)
[ INFO : 2024-09-25 10:45:00,011 ] -                 (final_layer_norm): LayerNorm((1024,), eps=1e-05, elementwise_affine=True)
[ INFO : 2024-09-25 10:45:00,011 ] -               )
[ INFO : 2024-09-25 10:45:00,011 ] -               (1): TransformerSentenceEncoderLayer(
[ INFO : 2024-09-25 10:45:00,011 ] -                 (self_attn): MultiheadAttention(
[ INFO : 2024-09-25 10:45:00,011 ] -                   (dropout_module): Dropout(p=0.0, inplace=False)
[ INFO : 2024-09-25 10:45:00,011 ] -                   (k_proj): Linear(in_features=1024, out_features=1024, bias=True)
[ INFO : 2024-09-25 10:45:00,011 ] -                   (v_proj): Linear(in_features=1024, out_features=1024, bias=True)
[ INFO : 2024-09-25 10:45:00,011 ] -                   (q_proj): Linear(in_features=1024, out_features=1024, bias=True)
[ INFO : 2024-09-25 10:45:00,011 ] -                   (out_proj): Linear(in_features=1024, out_features=1024, bias=True)
[ INFO : 2024-09-25 10:45:00,011 ] -                   (grep_linear): Linear(in_features=64, out_features=8, bias=True)
[ INFO : 2024-09-25 10:45:00,011 ] -                 )
[ INFO : 2024-09-25 10:45:00,011 ] -                 (dropout1): Dropout(p=0.0, inplace=False)
[ INFO : 2024-09-25 10:45:00,011 ] -                 (dropout2): Dropout(p=0.0, inplace=False)
[ INFO : 2024-09-25 10:45:00,011 ] -                 (dropout3): Dropout(p=0.0, inplace=False)
[ INFO : 2024-09-25 10:45:00,011 ] -                 (self_attn_layer_norm): LayerNorm((1024,), eps=1e-05, elementwise_affine=True)
[ INFO : 2024-09-25 10:45:00,011 ] -                 (fc1): Linear(in_features=1024, out_features=4096, bias=True)
[ INFO : 2024-09-25 10:45:00,011 ] -                 (fc2): Linear(in_features=4096, out_features=1024, bias=True)
[ INFO : 2024-09-25 10:45:00,011 ] -                 (final_layer_norm): LayerNorm((1024,), eps=1e-05, elementwise_affine=True)
[ INFO : 2024-09-25 10:45:00,011 ] -               )
[ INFO : 2024-09-25 10:45:00,011 ] -               (2): TransformerSentenceEncoderLayer(
[ INFO : 2024-09-25 10:45:00,011 ] -                 (self_attn): MultiheadAttention(
[ INFO : 2024-09-25 10:45:00,012 ] -                   (dropout_module): Dropout(p=0.0, inplace=False)
[ INFO : 2024-09-25 10:45:00,012 ] -                   (k_proj): Linear(in_features=1024, out_features=1024, bias=True)
[ INFO : 2024-09-25 10:45:00,012 ] -                   (v_proj): Linear(in_features=1024, out_features=1024, bias=True)
[ INFO : 2024-09-25 10:45:00,012 ] -                   (q_proj): Linear(in_features=1024, out_features=1024, bias=True)
[ INFO : 2024-09-25 10:45:00,012 ] -                   (out_proj): Linear(in_features=1024, out_features=1024, bias=True)
[ INFO : 2024-09-25 10:45:00,012 ] -                   (grep_linear): Linear(in_features=64, out_features=8, bias=True)
[ INFO : 2024-09-25 10:45:00,012 ] -                 )
[ INFO : 2024-09-25 10:45:00,012 ] -                 (dropout1): Dropout(p=0.0, inplace=False)
[ INFO : 2024-09-25 10:45:00,012 ] -                 (dropout2): Dropout(p=0.0, inplace=False)
[ INFO : 2024-09-25 10:45:00,012 ] -                 (dropout3): Dropout(p=0.0, inplace=False)
[ INFO : 2024-09-25 10:45:00,012 ] -                 (self_attn_layer_norm): LayerNorm((1024,), eps=1e-05, elementwise_affine=True)
[ INFO : 2024-09-25 10:45:00,012 ] -                 (fc1): Linear(in_features=1024, out_features=4096, bias=True)
[ INFO : 2024-09-25 10:45:00,012 ] -                 (fc2): Linear(in_features=4096, out_features=1024, bias=True)
[ INFO : 2024-09-25 10:45:00,012 ] -                 (final_layer_norm): LayerNorm((1024,), eps=1e-05, elementwise_affine=True)
[ INFO : 2024-09-25 10:45:00,012 ] -               )
[ INFO : 2024-09-25 10:45:00,012 ] -               (3): TransformerSentenceEncoderLayer(
[ INFO : 2024-09-25 10:45:00,012 ] -                 (self_attn): MultiheadAttention(
[ INFO : 2024-09-25 10:45:00,012 ] -                   (dropout_module): Dropout(p=0.0, inplace=False)
[ INFO : 2024-09-25 10:45:00,012 ] -                   (k_proj): Linear(in_features=1024, out_features=1024, bias=True)
[ INFO : 2024-09-25 10:45:00,012 ] -                   (v_proj): Linear(in_features=1024, out_features=1024, bias=True)
[ INFO : 2024-09-25 10:45:00,012 ] -                   (q_proj): Linear(in_features=1024, out_features=1024, bias=True)
[ INFO : 2024-09-25 10:45:00,012 ] -                   (out_proj): Linear(in_features=1024, out_features=1024, bias=True)
[ INFO : 2024-09-25 10:45:00,012 ] -                   (grep_linear): Linear(in_features=64, out_features=8, bias=True)
[ INFO : 2024-09-25 10:45:00,012 ] -                 )
[ INFO : 2024-09-25 10:45:00,012 ] -                 (dropout1): Dropout(p=0.0, inplace=False)
[ INFO : 2024-09-25 10:45:00,012 ] -                 (dropout2): Dropout(p=0.0, inplace=False)
[ INFO : 2024-09-25 10:45:00,012 ] -                 (dropout3): Dropout(p=0.0, inplace=False)
[ INFO : 2024-09-25 10:45:00,013 ] -                 (self_attn_layer_norm): LayerNorm((1024,), eps=1e-05, elementwise_affine=True)
[ INFO : 2024-09-25 10:45:00,013 ] -                 (fc1): Linear(in_features=1024, out_features=4096, bias=True)
[ INFO : 2024-09-25 10:45:00,013 ] -                 (fc2): Linear(in_features=4096, out_features=1024, bias=True)
[ INFO : 2024-09-25 10:45:00,013 ] -                 (final_layer_norm): LayerNorm((1024,), eps=1e-05, elementwise_affine=True)
[ INFO : 2024-09-25 10:45:00,013 ] -               )
[ INFO : 2024-09-25 10:45:00,013 ] -               (4): TransformerSentenceEncoderLayer(
[ INFO : 2024-09-25 10:45:00,013 ] -                 (self_attn): MultiheadAttention(
[ INFO : 2024-09-25 10:45:00,013 ] -                   (dropout_module): Dropout(p=0.0, inplace=False)
[ INFO : 2024-09-25 10:45:00,013 ] -                   (k_proj): Linear(in_features=1024, out_features=1024, bias=True)
[ INFO : 2024-09-25 10:45:00,013 ] -                   (v_proj): Linear(in_features=1024, out_features=1024, bias=True)
[ INFO : 2024-09-25 10:45:00,013 ] -                   (q_proj): Linear(in_features=1024, out_features=1024, bias=True)
[ INFO : 2024-09-25 10:45:00,013 ] -                   (out_proj): Linear(in_features=1024, out_features=1024, bias=True)
[ INFO : 2024-09-25 10:45:00,013 ] -                   (grep_linear): Linear(in_features=64, out_features=8, bias=True)
[ INFO : 2024-09-25 10:45:00,013 ] -                 )
[ INFO : 2024-09-25 10:45:00,013 ] -                 (dropout1): Dropout(p=0.0, inplace=False)
[ INFO : 2024-09-25 10:45:00,013 ] -                 (dropout2): Dropout(p=0.0, inplace=False)
[ INFO : 2024-09-25 10:45:00,013 ] -                 (dropout3): Dropout(p=0.0, inplace=False)
[ INFO : 2024-09-25 10:45:00,013 ] -                 (self_attn_layer_norm): LayerNorm((1024,), eps=1e-05, elementwise_affine=True)
[ INFO : 2024-09-25 10:45:00,013 ] -                 (fc1): Linear(in_features=1024, out_features=4096, bias=True)
[ INFO : 2024-09-25 10:45:00,013 ] -                 (fc2): Linear(in_features=4096, out_features=1024, bias=True)
[ INFO : 2024-09-25 10:45:00,013 ] -                 (final_layer_norm): LayerNorm((1024,), eps=1e-05, elementwise_affine=True)
[ INFO : 2024-09-25 10:45:00,013 ] -               )
[ INFO : 2024-09-25 10:45:00,013 ] -               (5): TransformerSentenceEncoderLayer(
[ INFO : 2024-09-25 10:45:00,013 ] -                 (self_attn): MultiheadAttention(
[ INFO : 2024-09-25 10:45:00,013 ] -                   (dropout_module): Dropout(p=0.0, inplace=False)
[ INFO : 2024-09-25 10:45:00,013 ] -                   (k_proj): Linear(in_features=1024, out_features=1024, bias=True)
[ INFO : 2024-09-25 10:45:00,013 ] -                   (v_proj): Linear(in_features=1024, out_features=1024, bias=True)
[ INFO : 2024-09-25 10:45:00,013 ] -                   (q_proj): Linear(in_features=1024, out_features=1024, bias=True)
[ INFO : 2024-09-25 10:45:00,013 ] -                   (out_proj): Linear(in_features=1024, out_features=1024, bias=True)
[ INFO : 2024-09-25 10:45:00,013 ] -                   (grep_linear): Linear(in_features=64, out_features=8, bias=True)
[ INFO : 2024-09-25 10:45:00,013 ] -                 )
[ INFO : 2024-09-25 10:45:00,013 ] -                 (dropout1): Dropout(p=0.0, inplace=False)
[ INFO : 2024-09-25 10:45:00,014 ] -                 (dropout2): Dropout(p=0.0, inplace=False)
[ INFO : 2024-09-25 10:45:00,014 ] -                 (dropout3): Dropout(p=0.0, inplace=False)
[ INFO : 2024-09-25 10:45:00,014 ] -                 (self_attn_layer_norm): LayerNorm((1024,), eps=1e-05, elementwise_affine=True)
[ INFO : 2024-09-25 10:45:00,014 ] -                 (fc1): Linear(in_features=1024, out_features=4096, bias=True)
[ INFO : 2024-09-25 10:45:00,014 ] -                 (fc2): Linear(in_features=4096, out_features=1024, bias=True)
[ INFO : 2024-09-25 10:45:00,014 ] -                 (final_layer_norm): LayerNorm((1024,), eps=1e-05, elementwise_affine=True)
[ INFO : 2024-09-25 10:45:00,014 ] -               )
[ INFO : 2024-09-25 10:45:00,014 ] -               (6): TransformerSentenceEncoderLayer(
[ INFO : 2024-09-25 10:45:00,014 ] -                 (self_attn): MultiheadAttention(
[ INFO : 2024-09-25 10:45:00,014 ] -                   (dropout_module): Dropout(p=0.0, inplace=False)
[ INFO : 2024-09-25 10:45:00,014 ] -                   (k_proj): Linear(in_features=1024, out_features=1024, bias=True)
[ INFO : 2024-09-25 10:45:00,014 ] -                   (v_proj): Linear(in_features=1024, out_features=1024, bias=True)
[ INFO : 2024-09-25 10:45:00,014 ] -                   (q_proj): Linear(in_features=1024, out_features=1024, bias=True)
[ INFO : 2024-09-25 10:45:00,014 ] -                   (out_proj): Linear(in_features=1024, out_features=1024, bias=True)
[ INFO : 2024-09-25 10:45:00,014 ] -                   (grep_linear): Linear(in_features=64, out_features=8, bias=True)
[ INFO : 2024-09-25 10:45:00,014 ] -                 )
[ INFO : 2024-09-25 10:45:00,014 ] -                 (dropout1): Dropout(p=0.0, inplace=False)
[ INFO : 2024-09-25 10:45:00,014 ] -                 (dropout2): Dropout(p=0.0, inplace=False)
[ INFO : 2024-09-25 10:45:00,014 ] -                 (dropout3): Dropout(p=0.0, inplace=False)
[ INFO : 2024-09-25 10:45:00,014 ] -                 (self_attn_layer_norm): LayerNorm((1024,), eps=1e-05, elementwise_affine=True)
[ INFO : 2024-09-25 10:45:00,014 ] -                 (fc1): Linear(in_features=1024, out_features=4096, bias=True)
[ INFO : 2024-09-25 10:45:00,014 ] -                 (fc2): Linear(in_features=4096, out_features=1024, bias=True)
[ INFO : 2024-09-25 10:45:00,014 ] -                 (final_layer_norm): LayerNorm((1024,), eps=1e-05, elementwise_affine=True)
[ INFO : 2024-09-25 10:45:00,014 ] -               )
[ INFO : 2024-09-25 10:45:00,014 ] -               (7): TransformerSentenceEncoderLayer(
[ INFO : 2024-09-25 10:45:00,014 ] -                 (self_attn): MultiheadAttention(
[ INFO : 2024-09-25 10:45:00,014 ] -                   (dropout_module): Dropout(p=0.0, inplace=False)
[ INFO : 2024-09-25 10:45:00,014 ] -                   (k_proj): Linear(in_features=1024, out_features=1024, bias=True)
[ INFO : 2024-09-25 10:45:00,014 ] -                   (v_proj): Linear(in_features=1024, out_features=1024, bias=True)
[ INFO : 2024-09-25 10:45:00,014 ] -                   (q_proj): Linear(in_features=1024, out_features=1024, bias=True)
[ INFO : 2024-09-25 10:45:00,014 ] -                   (out_proj): Linear(in_features=1024, out_features=1024, bias=True)
[ INFO : 2024-09-25 10:45:00,014 ] -                   (grep_linear): Linear(in_features=64, out_features=8, bias=True)
[ INFO : 2024-09-25 10:45:00,015 ] -                 )
[ INFO : 2024-09-25 10:45:00,015 ] -                 (dropout1): Dropout(p=0.0, inplace=False)
[ INFO : 2024-09-25 10:45:00,015 ] -                 (dropout2): Dropout(p=0.0, inplace=False)
[ INFO : 2024-09-25 10:45:00,015 ] -                 (dropout3): Dropout(p=0.0, inplace=False)
[ INFO : 2024-09-25 10:45:00,015 ] -                 (self_attn_layer_norm): LayerNorm((1024,), eps=1e-05, elementwise_affine=True)
[ INFO : 2024-09-25 10:45:00,015 ] -                 (fc1): Linear(in_features=1024, out_features=4096, bias=True)
[ INFO : 2024-09-25 10:45:00,015 ] -                 (fc2): Linear(in_features=4096, out_features=1024, bias=True)
[ INFO : 2024-09-25 10:45:00,015 ] -                 (final_layer_norm): LayerNorm((1024,), eps=1e-05, elementwise_affine=True)
[ INFO : 2024-09-25 10:45:00,015 ] -               )
[ INFO : 2024-09-25 10:45:00,015 ] -               (8): TransformerSentenceEncoderLayer(
[ INFO : 2024-09-25 10:45:00,015 ] -                 (self_attn): MultiheadAttention(
[ INFO : 2024-09-25 10:45:00,015 ] -                   (dropout_module): Dropout(p=0.0, inplace=False)
[ INFO : 2024-09-25 10:45:00,015 ] -                   (k_proj): Linear(in_features=1024, out_features=1024, bias=True)
[ INFO : 2024-09-25 10:45:00,015 ] -                   (v_proj): Linear(in_features=1024, out_features=1024, bias=True)
[ INFO : 2024-09-25 10:45:00,015 ] -                   (q_proj): Linear(in_features=1024, out_features=1024, bias=True)
[ INFO : 2024-09-25 10:45:00,015 ] -                   (out_proj): Linear(in_features=1024, out_features=1024, bias=True)
[ INFO : 2024-09-25 10:45:00,015 ] -                   (grep_linear): Linear(in_features=64, out_features=8, bias=True)
[ INFO : 2024-09-25 10:45:00,015 ] -                 )
[ INFO : 2024-09-25 10:45:00,015 ] -                 (dropout1): Dropout(p=0.0, inplace=False)
[ INFO : 2024-09-25 10:45:00,015 ] -                 (dropout2): Dropout(p=0.0, inplace=False)
[ INFO : 2024-09-25 10:45:00,015 ] -                 (dropout3): Dropout(p=0.0, inplace=False)
[ INFO : 2024-09-25 10:45:00,015 ] -                 (self_attn_layer_norm): LayerNorm((1024,), eps=1e-05, elementwise_affine=True)
[ INFO : 2024-09-25 10:45:00,015 ] -                 (fc1): Linear(in_features=1024, out_features=4096, bias=True)
[ INFO : 2024-09-25 10:45:00,015 ] -                 (fc2): Linear(in_features=4096, out_features=1024, bias=True)
[ INFO : 2024-09-25 10:45:00,015 ] -                 (final_layer_norm): LayerNorm((1024,), eps=1e-05, elementwise_affine=True)
[ INFO : 2024-09-25 10:45:00,015 ] -               )
[ INFO : 2024-09-25 10:45:00,015 ] -               (9): TransformerSentenceEncoderLayer(
[ INFO : 2024-09-25 10:45:00,015 ] -                 (self_attn): MultiheadAttention(
[ INFO : 2024-09-25 10:45:00,015 ] -                   (dropout_module): Dropout(p=0.0, inplace=False)
[ INFO : 2024-09-25 10:45:00,015 ] -                   (k_proj): Linear(in_features=1024, out_features=1024, bias=True)
[ INFO : 2024-09-25 10:45:00,015 ] -                   (v_proj): Linear(in_features=1024, out_features=1024, bias=True)
[ INFO : 2024-09-25 10:45:00,015 ] -                   (q_proj): Linear(in_features=1024, out_features=1024, bias=True)
[ INFO : 2024-09-25 10:45:00,015 ] -                   (out_proj): Linear(in_features=1024, out_features=1024, bias=True)
[ INFO : 2024-09-25 10:45:00,016 ] -                   (grep_linear): Linear(in_features=64, out_features=8, bias=True)
[ INFO : 2024-09-25 10:45:00,016 ] -                 )
[ INFO : 2024-09-25 10:45:00,016 ] -                 (dropout1): Dropout(p=0.0, inplace=False)
[ INFO : 2024-09-25 10:45:00,016 ] -                 (dropout2): Dropout(p=0.0, inplace=False)
[ INFO : 2024-09-25 10:45:00,016 ] -                 (dropout3): Dropout(p=0.0, inplace=False)
[ INFO : 2024-09-25 10:45:00,016 ] -                 (self_attn_layer_norm): LayerNorm((1024,), eps=1e-05, elementwise_affine=True)
[ INFO : 2024-09-25 10:45:00,016 ] -                 (fc1): Linear(in_features=1024, out_features=4096, bias=True)
[ INFO : 2024-09-25 10:45:00,016 ] -                 (fc2): Linear(in_features=4096, out_features=1024, bias=True)
[ INFO : 2024-09-25 10:45:00,016 ] -                 (final_layer_norm): LayerNorm((1024,), eps=1e-05, elementwise_affine=True)
[ INFO : 2024-09-25 10:45:00,016 ] -               )
[ INFO : 2024-09-25 10:45:00,016 ] -               (10): TransformerSentenceEncoderLayer(
[ INFO : 2024-09-25 10:45:00,016 ] -                 (self_attn): MultiheadAttention(
[ INFO : 2024-09-25 10:45:00,016 ] -                   (dropout_module): Dropout(p=0.0, inplace=False)
[ INFO : 2024-09-25 10:45:00,016 ] -                   (k_proj): Linear(in_features=1024, out_features=1024, bias=True)
[ INFO : 2024-09-25 10:45:00,016 ] -                   (v_proj): Linear(in_features=1024, out_features=1024, bias=True)
[ INFO : 2024-09-25 10:45:00,016 ] -                   (q_proj): Linear(in_features=1024, out_features=1024, bias=True)
[ INFO : 2024-09-25 10:45:00,016 ] -                   (out_proj): Linear(in_features=1024, out_features=1024, bias=True)
[ INFO : 2024-09-25 10:45:00,016 ] -                   (grep_linear): Linear(in_features=64, out_features=8, bias=True)
[ INFO : 2024-09-25 10:45:00,016 ] -                 )
[ INFO : 2024-09-25 10:45:00,016 ] -                 (dropout1): Dropout(p=0.0, inplace=False)
[ INFO : 2024-09-25 10:45:00,016 ] -                 (dropout2): Dropout(p=0.0, inplace=False)
[ INFO : 2024-09-25 10:45:00,016 ] -                 (dropout3): Dropout(p=0.0, inplace=False)
[ INFO : 2024-09-25 10:45:00,016 ] -                 (self_attn_layer_norm): LayerNorm((1024,), eps=1e-05, elementwise_affine=True)
[ INFO : 2024-09-25 10:45:00,016 ] -                 (fc1): Linear(in_features=1024, out_features=4096, bias=True)
[ INFO : 2024-09-25 10:45:00,016 ] -                 (fc2): Linear(in_features=4096, out_features=1024, bias=True)
[ INFO : 2024-09-25 10:45:00,016 ] -                 (final_layer_norm): LayerNorm((1024,), eps=1e-05, elementwise_affine=True)
[ INFO : 2024-09-25 10:45:00,016 ] -               )
[ INFO : 2024-09-25 10:45:00,016 ] -               (11): TransformerSentenceEncoderLayer(
[ INFO : 2024-09-25 10:45:00,016 ] -                 (self_attn): MultiheadAttention(
[ INFO : 2024-09-25 10:45:00,016 ] -                   (dropout_module): Dropout(p=0.0, inplace=False)
[ INFO : 2024-09-25 10:45:00,016 ] -                   (k_proj): Linear(in_features=1024, out_features=1024, bias=True)
[ INFO : 2024-09-25 10:45:00,016 ] -                   (v_proj): Linear(in_features=1024, out_features=1024, bias=True)
[ INFO : 2024-09-25 10:45:00,017 ] -                   (q_proj): Linear(in_features=1024, out_features=1024, bias=True)
[ INFO : 2024-09-25 10:45:00,017 ] -                   (out_proj): Linear(in_features=1024, out_features=1024, bias=True)
[ INFO : 2024-09-25 10:45:00,017 ] -                   (grep_linear): Linear(in_features=64, out_features=8, bias=True)
[ INFO : 2024-09-25 10:45:00,017 ] -                 )
[ INFO : 2024-09-25 10:45:00,017 ] -                 (dropout1): Dropout(p=0.0, inplace=False)
[ INFO : 2024-09-25 10:45:00,017 ] -                 (dropout2): Dropout(p=0.0, inplace=False)
[ INFO : 2024-09-25 10:45:00,017 ] -                 (dropout3): Dropout(p=0.0, inplace=False)
[ INFO : 2024-09-25 10:45:00,017 ] -                 (self_attn_layer_norm): LayerNorm((1024,), eps=1e-05, elementwise_affine=True)
[ INFO : 2024-09-25 10:45:00,017 ] -                 (fc1): Linear(in_features=1024, out_features=4096, bias=True)
[ INFO : 2024-09-25 10:45:00,017 ] -                 (fc2): Linear(in_features=4096, out_features=1024, bias=True)
[ INFO : 2024-09-25 10:45:00,017 ] -                 (final_layer_norm): LayerNorm((1024,), eps=1e-05, elementwise_affine=True)
[ INFO : 2024-09-25 10:45:00,017 ] -               )
[ INFO : 2024-09-25 10:45:00,017 ] -               (12): TransformerSentenceEncoderLayer(
[ INFO : 2024-09-25 10:45:00,017 ] -                 (self_attn): MultiheadAttention(
[ INFO : 2024-09-25 10:45:00,017 ] -                   (dropout_module): Dropout(p=0.0, inplace=False)
[ INFO : 2024-09-25 10:45:00,017 ] -                   (k_proj): Linear(in_features=1024, out_features=1024, bias=True)
[ INFO : 2024-09-25 10:45:00,017 ] -                   (v_proj): Linear(in_features=1024, out_features=1024, bias=True)
[ INFO : 2024-09-25 10:45:00,017 ] -                   (q_proj): Linear(in_features=1024, out_features=1024, bias=True)
[ INFO : 2024-09-25 10:45:00,017 ] -                   (out_proj): Linear(in_features=1024, out_features=1024, bias=True)
[ INFO : 2024-09-25 10:45:00,017 ] -                   (grep_linear): Linear(in_features=64, out_features=8, bias=True)
[ INFO : 2024-09-25 10:45:00,017 ] -                 )
[ INFO : 2024-09-25 10:45:00,017 ] -                 (dropout1): Dropout(p=0.0, inplace=False)
[ INFO : 2024-09-25 10:45:00,017 ] -                 (dropout2): Dropout(p=0.0, inplace=False)
[ INFO : 2024-09-25 10:45:00,017 ] - start_epoch: 1
[ INFO : 2024-09-25 10:45:00,017 ] -                 (dropout3): Dropout(p=0.0, inplace=False)
[ INFO : 2024-09-25 10:45:00,017 ] -                 (self_attn_layer_norm): LayerNorm((1024,), eps=1e-05, elementwise_affine=True)
[ INFO : 2024-09-25 10:45:00,017 ] -                 (fc1): Linear(in_features=1024, out_features=4096, bias=True)
[ INFO : 2024-09-25 10:45:00,017 ] -                 (fc2): Linear(in_features=4096, out_features=1024, bias=True)
[ INFO : 2024-09-25 10:45:00,018 ] -                 (final_layer_norm): LayerNorm((1024,), eps=1e-05, elementwise_affine=True)
[ INFO : 2024-09-25 10:45:00,018 ] -               )
[ INFO : 2024-09-25 10:45:00,018 ] -               (13): TransformerSentenceEncoderLayer(
[ INFO : 2024-09-25 10:45:00,018 ] -                 (self_attn): MultiheadAttention(
[ INFO : 2024-09-25 10:45:00,018 ] -                   (dropout_module): Dropout(p=0.0, inplace=False)
[ INFO : 2024-09-25 10:45:00,018 ] -                   (k_proj): Linear(in_features=1024, out_features=1024, bias=True)
[ INFO : 2024-09-25 10:45:00,018 ] -                   (v_proj): Linear(in_features=1024, out_features=1024, bias=True)
[ INFO : 2024-09-25 10:45:00,018 ] -                   (q_proj): Linear(in_features=1024, out_features=1024, bias=True)
[ INFO : 2024-09-25 10:45:00,018 ] -                   (out_proj): Linear(in_features=1024, out_features=1024, bias=True)
[ INFO : 2024-09-25 10:45:00,018 ] -                   (grep_linear): Linear(in_features=64, out_features=8, bias=True)
[ INFO : 2024-09-25 10:45:00,018 ] -                 )
[ INFO : 2024-09-25 10:45:00,018 ] -                 (dropout1): Dropout(p=0.0, inplace=False)
[ INFO : 2024-09-25 10:45:00,018 ] -                 (dropout2): Dropout(p=0.0, inplace=False)
[ INFO : 2024-09-25 10:45:00,018 ] -                 (dropout3): Dropout(p=0.0, inplace=False)
[ INFO : 2024-09-25 10:45:00,018 ] -                 (self_attn_layer_norm): LayerNorm((1024,), eps=1e-05, elementwise_affine=True)
[ INFO : 2024-09-25 10:45:00,018 ] -                 (fc1): Linear(in_features=1024, out_features=4096, bias=True)
[ INFO : 2024-09-25 10:45:00,018 ] -                 (fc2): Linear(in_features=4096, out_features=1024, bias=True)
[ INFO : 2024-09-25 10:45:00,018 ] -                 (final_layer_norm): LayerNorm((1024,), eps=1e-05, elementwise_affine=True)
[ INFO : 2024-09-25 10:45:00,018 ] -               )
[ INFO : 2024-09-25 10:45:00,018 ] -               (14): TransformerSentenceEncoderLayer(
[ INFO : 2024-09-25 10:45:00,018 ] -                 (self_attn): MultiheadAttention(
[ INFO : 2024-09-25 10:45:00,018 ] -                   (dropout_module): Dropout(p=0.0, inplace=False)
[ INFO : 2024-09-25 10:45:00,018 ] -                   (k_proj): Linear(in_features=1024, out_features=1024, bias=True)
[ INFO : 2024-09-25 10:45:00,018 ] -                   (v_proj): Linear(in_features=1024, out_features=1024, bias=True)
[ INFO : 2024-09-25 10:45:00,018 ] -                   (q_proj): Linear(in_features=1024, out_features=1024, bias=True)
[ INFO : 2024-09-25 10:45:00,018 ] -                   (out_proj): Linear(in_features=1024, out_features=1024, bias=True)
[ INFO : 2024-09-25 10:45:00,019 ] -                   (grep_linear): Linear(in_features=64, out_features=8, bias=True)
[ INFO : 2024-09-25 10:45:00,019 ] -                 )
[ INFO : 2024-09-25 10:45:00,019 ] -                 (dropout1): Dropout(p=0.0, inplace=False)
[ INFO : 2024-09-25 10:45:00,019 ] -                 (dropout2): Dropout(p=0.0, inplace=False)
[ INFO : 2024-09-25 10:45:00,019 ] -                 (dropout3): Dropout(p=0.0, inplace=False)
[ INFO : 2024-09-25 10:45:00,019 ] -                 (self_attn_layer_norm): LayerNorm((1024,), eps=1e-05, elementwise_affine=True)
[ INFO : 2024-09-25 10:45:00,019 ] -                 (fc1): Linear(in_features=1024, out_features=4096, bias=True)
[ INFO : 2024-09-25 10:45:00,019 ] -                 (fc2): Linear(in_features=4096, out_features=1024, bias=True)
[ INFO : 2024-09-25 10:45:00,019 ] -                 (final_layer_norm): LayerNorm((1024,), eps=1e-05, elementwise_affine=True)
[ INFO : 2024-09-25 10:45:00,019 ] -               )
[ INFO : 2024-09-25 10:45:00,019 ] -               (15): TransformerSentenceEncoderLayer(
[ INFO : 2024-09-25 10:45:00,019 ] -                 (self_attn): MultiheadAttention(
[ INFO : 2024-09-25 10:45:00,019 ] -                   (dropout_module): Dropout(p=0.0, inplace=False)
[ INFO : 2024-09-25 10:45:00,019 ] -                   (k_proj): Linear(in_features=1024, out_features=1024, bias=True)
[ INFO : 2024-09-25 10:45:00,019 ] -                   (v_proj): Linear(in_features=1024, out_features=1024, bias=True)
[ INFO : 2024-09-25 10:45:00,019 ] -                   (q_proj): Linear(in_features=1024, out_features=1024, bias=True)
[ INFO : 2024-09-25 10:45:00,019 ] -                   (out_proj): Linear(in_features=1024, out_features=1024, bias=True)
[ INFO : 2024-09-25 10:45:00,019 ] -                   (grep_linear): Linear(in_features=64, out_features=8, bias=True)
[ INFO : 2024-09-25 10:45:00,019 ] -                 )
[ INFO : 2024-09-25 10:45:00,019 ] -                 (dropout1): Dropout(p=0.0, inplace=False)
[ INFO : 2024-09-25 10:45:00,019 ] -                 (dropout2): Dropout(p=0.0, inplace=False)
[ INFO : 2024-09-25 10:45:00,019 ] -                 (dropout3): Dropout(p=0.0, inplace=False)
[ INFO : 2024-09-25 10:45:00,019 ] -                 (self_attn_layer_norm): LayerNorm((1024,), eps=1e-05, elementwise_affine=True)
[ INFO : 2024-09-25 10:45:00,019 ] -                 (fc1): Linear(in_features=1024, out_features=4096, bias=True)
[ INFO : 2024-09-25 10:45:00,019 ] -                 (fc2): Linear(in_features=4096, out_features=1024, bias=True)
[ INFO : 2024-09-25 10:45:00,019 ] -                 (final_layer_norm): LayerNorm((1024,), eps=1e-05, elementwise_affine=True)
[ INFO : 2024-09-25 10:45:00,020 ] -               )
[ INFO : 2024-09-25 10:45:00,020 ] -               (16): TransformerSentenceEncoderLayer(
[ INFO : 2024-09-25 10:45:00,020 ] -                 (self_attn): MultiheadAttention(
[ INFO : 2024-09-25 10:45:00,020 ] -                   (dropout_module): Dropout(p=0.0, inplace=False)
[ INFO : 2024-09-25 10:45:00,020 ] -                   (k_proj): Linear(in_features=1024, out_features=1024, bias=True)
[ INFO : 2024-09-25 10:45:00,020 ] -                   (v_proj): Linear(in_features=1024, out_features=1024, bias=True)
[ INFO : 2024-09-25 10:45:00,020 ] -                   (q_proj): Linear(in_features=1024, out_features=1024, bias=True)
[ INFO : 2024-09-25 10:45:00,020 ] -                   (out_proj): Linear(in_features=1024, out_features=1024, bias=True)
[ INFO : 2024-09-25 10:45:00,020 ] -                   (grep_linear): Linear(in_features=64, out_features=8, bias=True)
[ INFO : 2024-09-25 10:45:00,020 ] -                 )
[ INFO : 2024-09-25 10:45:00,020 ] -                 (dropout1): Dropout(p=0.0, inplace=False)
[ INFO : 2024-09-25 10:45:00,020 ] -                 (dropout2): Dropout(p=0.0, inplace=False)
[ INFO : 2024-09-25 10:45:00,020 ] -                 (dropout3): Dropout(p=0.0, inplace=False)
[ INFO : 2024-09-25 10:45:00,020 ] -                 (self_attn_layer_norm): LayerNorm((1024,), eps=1e-05, elementwise_affine=True)
[ INFO : 2024-09-25 10:45:00,020 ] -                 (fc1): Linear(in_features=1024, out_features=4096, bias=True)
[ INFO : 2024-09-25 10:45:00,020 ] -                 (fc2): Linear(in_features=4096, out_features=1024, bias=True)
[ INFO : 2024-09-25 10:45:00,020 ] -                 (final_layer_norm): LayerNorm((1024,), eps=1e-05, elementwise_affine=True)
[ INFO : 2024-09-25 10:45:00,020 ] -               )
[ INFO : 2024-09-25 10:45:00,020 ] -               (17): TransformerSentenceEncoderLayer(
[ INFO : 2024-09-25 10:45:00,020 ] -                 (self_attn): MultiheadAttention(
[ INFO : 2024-09-25 10:45:00,020 ] -                   (dropout_module): Dropout(p=0.0, inplace=False)
[ INFO : 2024-09-25 10:45:00,020 ] -                   (k_proj): Linear(in_features=1024, out_features=1024, bias=True)
[ INFO : 2024-09-25 10:45:00,020 ] -                   (v_proj): Linear(in_features=1024, out_features=1024, bias=True)
[ INFO : 2024-09-25 10:45:00,020 ] -                   (q_proj): Linear(in_features=1024, out_features=1024, bias=True)
[ INFO : 2024-09-25 10:45:00,020 ] -                   (out_proj): Linear(in_features=1024, out_features=1024, bias=True)
[ INFO : 2024-09-25 10:45:00,020 ] -                   (grep_linear): Linear(in_features=64, out_features=8, bias=True)
[ INFO : 2024-09-25 10:45:00,020 ] -                 )
[ INFO : 2024-09-25 10:45:00,021 ] -                 (dropout1): Dropout(p=0.0, inplace=False)
[ INFO : 2024-09-25 10:45:00,021 ] -                 (dropout2): Dropout(p=0.0, inplace=False)
[ INFO : 2024-09-25 10:45:00,021 ] -                 (dropout3): Dropout(p=0.0, inplace=False)
[ INFO : 2024-09-25 10:45:00,021 ] -                 (self_attn_layer_norm): LayerNorm((1024,), eps=1e-05, elementwise_affine=True)
[ INFO : 2024-09-25 10:45:00,021 ] -                 (fc1): Linear(in_features=1024, out_features=4096, bias=True)
[ INFO : 2024-09-25 10:45:00,021 ] -                 (fc2): Linear(in_features=4096, out_features=1024, bias=True)
[ INFO : 2024-09-25 10:45:00,021 ] -                 (final_layer_norm): LayerNorm((1024,), eps=1e-05, elementwise_affine=True)
[ INFO : 2024-09-25 10:45:00,021 ] -               )
[ INFO : 2024-09-25 10:45:00,021 ] -               (18): TransformerSentenceEncoderLayer(
[ INFO : 2024-09-25 10:45:00,021 ] -                 (self_attn): MultiheadAttention(
[ INFO : 2024-09-25 10:45:00,021 ] -                   (dropout_module): Dropout(p=0.0, inplace=False)
[ INFO : 2024-09-25 10:45:00,021 ] -                   (k_proj): Linear(in_features=1024, out_features=1024, bias=True)
[ INFO : 2024-09-25 10:45:00,021 ] -                   (v_proj): Linear(in_features=1024, out_features=1024, bias=True)
[ INFO : 2024-09-25 10:45:00,021 ] -                   (q_proj): Linear(in_features=1024, out_features=1024, bias=True)
[ INFO : 2024-09-25 10:45:00,021 ] -                   (out_proj): Linear(in_features=1024, out_features=1024, bias=True)
[ INFO : 2024-09-25 10:45:00,021 ] -                   (grep_linear): Linear(in_features=64, out_features=8, bias=True)
[ INFO : 2024-09-25 10:45:00,021 ] -                 )
[ INFO : 2024-09-25 10:45:00,021 ] -                 (dropout1): Dropout(p=0.0, inplace=False)
[ INFO : 2024-09-25 10:45:00,021 ] -                 (dropout2): Dropout(p=0.0, inplace=False)
[ INFO : 2024-09-25 10:45:00,021 ] -                 (dropout3): Dropout(p=0.0, inplace=False)
[ INFO : 2024-09-25 10:45:00,021 ] -                 (self_attn_layer_norm): LayerNorm((1024,), eps=1e-05, elementwise_affine=True)
[ INFO : 2024-09-25 10:45:00,021 ] -                 (fc1): Linear(in_features=1024, out_features=4096, bias=True)
[ INFO : 2024-09-25 10:45:00,021 ] -                 (fc2): Linear(in_features=4096, out_features=1024, bias=True)
[ INFO : 2024-09-25 10:45:00,021 ] -                 (final_layer_norm): LayerNorm((1024,), eps=1e-05, elementwise_affine=True)
[ INFO : 2024-09-25 10:45:00,021 ] -               )
[ INFO : 2024-09-25 10:45:00,021 ] -               (19): TransformerSentenceEncoderLayer(
[ INFO : 2024-09-25 10:45:00,021 ] -                 (self_attn): MultiheadAttention(
[ INFO : 2024-09-25 10:45:00,022 ] -                   (dropout_module): Dropout(p=0.0, inplace=False)
[ INFO : 2024-09-25 10:45:00,022 ] -                   (k_proj): Linear(in_features=1024, out_features=1024, bias=True)
[ INFO : 2024-09-25 10:45:00,022 ] -                   (v_proj): Linear(in_features=1024, out_features=1024, bias=True)
[ INFO : 2024-09-25 10:45:00,022 ] -                   (q_proj): Linear(in_features=1024, out_features=1024, bias=True)
[ INFO : 2024-09-25 10:45:00,022 ] -                   (out_proj): Linear(in_features=1024, out_features=1024, bias=True)
[ INFO : 2024-09-25 10:45:00,022 ] -                   (grep_linear): Linear(in_features=64, out_features=8, bias=True)
[ INFO : 2024-09-25 10:45:00,022 ] -                 )
[ INFO : 2024-09-25 10:45:00,022 ] -                 (dropout1): Dropout(p=0.0, inplace=False)
[ INFO : 2024-09-25 10:45:00,022 ] -                 (dropout2): Dropout(p=0.0, inplace=False)
[ INFO : 2024-09-25 10:45:00,022 ] -                 (dropout3): Dropout(p=0.0, inplace=False)
[ INFO : 2024-09-25 10:45:00,022 ] -                 (self_attn_layer_norm): LayerNorm((1024,), eps=1e-05, elementwise_affine=True)
[ INFO : 2024-09-25 10:45:00,022 ] -                 (fc1): Linear(in_features=1024, out_features=4096, bias=True)
[ INFO : 2024-09-25 10:45:00,022 ] -                 (fc2): Linear(in_features=4096, out_features=1024, bias=True)
[ INFO : 2024-09-25 10:45:00,022 ] -                 (final_layer_norm): LayerNorm((1024,), eps=1e-05, elementwise_affine=True)
[ INFO : 2024-09-25 10:45:00,022 ] -               )
[ INFO : 2024-09-25 10:45:00,022 ] -               (20): TransformerSentenceEncoderLayer(
[ INFO : 2024-09-25 10:45:00,022 ] -                 (self_attn): MultiheadAttention(
[ INFO : 2024-09-25 10:45:00,022 ] -                   (dropout_module): Dropout(p=0.0, inplace=False)
[ INFO : 2024-09-25 10:45:00,022 ] -                   (k_proj): Linear(in_features=1024, out_features=1024, bias=True)
[ INFO : 2024-09-25 10:45:00,022 ] -                   (v_proj): Linear(in_features=1024, out_features=1024, bias=True)
[ INFO : 2024-09-25 10:45:00,022 ] -                   (q_proj): Linear(in_features=1024, out_features=1024, bias=True)
[ INFO : 2024-09-25 10:45:00,022 ] -                   (out_proj): Linear(in_features=1024, out_features=1024, bias=True)
[ INFO : 2024-09-25 10:45:00,022 ] -                   (grep_linear): Linear(in_features=64, out_features=8, bias=True)
[ INFO : 2024-09-25 10:45:00,022 ] -                 )
[ INFO : 2024-09-25 10:45:00,022 ] -                 (dropout1): Dropout(p=0.0, inplace=False)
[ INFO : 2024-09-25 10:45:00,022 ] -                 (dropout2): Dropout(p=0.0, inplace=False)
[ INFO : 2024-09-25 10:45:00,022 ] -                 (dropout3): Dropout(p=0.0, inplace=False)
[ INFO : 2024-09-25 10:45:00,022 ] -                 (self_attn_layer_norm): LayerNorm((1024,), eps=1e-05, elementwise_affine=True)
[ INFO : 2024-09-25 10:45:00,022 ] -                 (fc1): Linear(in_features=1024, out_features=4096, bias=True)
[ INFO : 2024-09-25 10:45:00,022 ] -                 (fc2): Linear(in_features=4096, out_features=1024, bias=True)
[ INFO : 2024-09-25 10:45:00,022 ] -                 (final_layer_norm): LayerNorm((1024,), eps=1e-05, elementwise_affine=True)
[ INFO : 2024-09-25 10:45:00,022 ] -               )
[ INFO : 2024-09-25 10:45:00,022 ] -               (21): TransformerSentenceEncoderLayer(
[ INFO : 2024-09-25 10:45:00,023 ] -                 (self_attn): MultiheadAttention(
[ INFO : 2024-09-25 10:45:00,023 ] -                   (dropout_module): Dropout(p=0.0, inplace=False)
[ INFO : 2024-09-25 10:45:00,023 ] -                   (k_proj): Linear(in_features=1024, out_features=1024, bias=True)
[ INFO : 2024-09-25 10:45:00,023 ] -                   (v_proj): Linear(in_features=1024, out_features=1024, bias=True)
[ INFO : 2024-09-25 10:45:00,023 ] -                   (q_proj): Linear(in_features=1024, out_features=1024, bias=True)
[ INFO : 2024-09-25 10:45:00,023 ] -                   (out_proj): Linear(in_features=1024, out_features=1024, bias=True)
[ INFO : 2024-09-25 10:45:00,023 ] -                   (grep_linear): Linear(in_features=64, out_features=8, bias=True)
[ INFO : 2024-09-25 10:45:00,023 ] -                 )
[ INFO : 2024-09-25 10:45:00,023 ] -                 (dropout1): Dropout(p=0.0, inplace=False)
[ INFO : 2024-09-25 10:45:00,023 ] -                 (dropout2): Dropout(p=0.0, inplace=False)
[ INFO : 2024-09-25 10:45:00,023 ] -                 (dropout3): Dropout(p=0.0, inplace=False)
[ INFO : 2024-09-25 10:45:00,023 ] -                 (self_attn_layer_norm): LayerNorm((1024,), eps=1e-05, elementwise_affine=True)
[ INFO : 2024-09-25 10:45:00,023 ] -                 (fc1): Linear(in_features=1024, out_features=4096, bias=True)
[ INFO : 2024-09-25 10:45:00,023 ] -                 (fc2): Linear(in_features=4096, out_features=1024, bias=True)
[ INFO : 2024-09-25 10:45:00,023 ] -                 (final_layer_norm): LayerNorm((1024,), eps=1e-05, elementwise_affine=True)
[ INFO : 2024-09-25 10:45:00,023 ] -               )
[ INFO : 2024-09-25 10:45:00,023 ] -               (22): TransformerSentenceEncoderLayer(
[ INFO : 2024-09-25 10:45:00,023 ] -                 (self_attn): MultiheadAttention(
[ INFO : 2024-09-25 10:45:00,023 ] -                   (dropout_module): Dropout(p=0.0, inplace=False)
[ INFO : 2024-09-25 10:45:00,023 ] -                   (k_proj): Linear(in_features=1024, out_features=1024, bias=True)
[ INFO : 2024-09-25 10:45:00,023 ] -                   (v_proj): Linear(in_features=1024, out_features=1024, bias=True)
[ INFO : 2024-09-25 10:45:00,023 ] -                   (q_proj): Linear(in_features=1024, out_features=1024, bias=True)
[ INFO : 2024-09-25 10:45:00,023 ] -                   (out_proj): Linear(in_features=1024, out_features=1024, bias=True)
[ INFO : 2024-09-25 10:45:00,023 ] -                   (grep_linear): Linear(in_features=64, out_features=8, bias=True)
[ INFO : 2024-09-25 10:45:00,023 ] -                 )
[ INFO : 2024-09-25 10:45:00,023 ] -                 (dropout1): Dropout(p=0.0, inplace=False)
[ INFO : 2024-09-25 10:45:00,023 ] -                 (dropout2): Dropout(p=0.0, inplace=False)
[ INFO : 2024-09-25 10:45:00,023 ] -                 (dropout3): Dropout(p=0.0, inplace=False)
[ INFO : 2024-09-25 10:45:00,023 ] -                 (self_attn_layer_norm): LayerNorm((1024,), eps=1e-05, elementwise_affine=True)
[ INFO : 2024-09-25 10:45:00,023 ] -                 (fc1): Linear(in_features=1024, out_features=4096, bias=True)
[ INFO : 2024-09-25 10:45:00,023 ] -                 (fc2): Linear(in_features=4096, out_features=1024, bias=True)
[ INFO : 2024-09-25 10:45:00,023 ] -                 (final_layer_norm): LayerNorm((1024,), eps=1e-05, elementwise_affine=True)
[ INFO : 2024-09-25 10:45:00,024 ] -               )
[ INFO : 2024-09-25 10:45:00,024 ] -               (23): TransformerSentenceEncoderLayer(
[ INFO : 2024-09-25 10:45:00,024 ] -                 (self_attn): MultiheadAttention(
[ INFO : 2024-09-25 10:45:00,024 ] -                   (dropout_module): Dropout(p=0.0, inplace=False)
[ INFO : 2024-09-25 10:45:00,024 ] -                   (k_proj): Linear(in_features=1024, out_features=1024, bias=True)
[ INFO : 2024-09-25 10:45:00,024 ] -                   (v_proj): Linear(in_features=1024, out_features=1024, bias=True)
[ INFO : 2024-09-25 10:45:00,024 ] -                   (q_proj): Linear(in_features=1024, out_features=1024, bias=True)
[ INFO : 2024-09-25 10:45:00,024 ] -                   (out_proj): Linear(in_features=1024, out_features=1024, bias=True)
[ INFO : 2024-09-25 10:45:00,024 ] -                   (grep_linear): Linear(in_features=64, out_features=8, bias=True)
[ INFO : 2024-09-25 10:45:00,024 ] -                 )
[ INFO : 2024-09-25 10:45:00,024 ] -                 (dropout1): Dropout(p=0.0, inplace=False)
[ INFO : 2024-09-25 10:45:00,024 ] -                 (dropout2): Dropout(p=0.0, inplace=False)
[ INFO : 2024-09-25 10:45:00,024 ] -                 (dropout3): Dropout(p=0.0, inplace=False)
[ INFO : 2024-09-25 10:45:00,024 ] -                 (self_attn_layer_norm): LayerNorm((1024,), eps=1e-05, elementwise_affine=True)
[ INFO : 2024-09-25 10:45:00,024 ] -                 (fc1): Linear(in_features=1024, out_features=4096, bias=True)
[ INFO : 2024-09-25 10:45:00,024 ] -                 (fc2): Linear(in_features=4096, out_features=1024, bias=True)
[ INFO : 2024-09-25 10:45:00,024 ] -                 (final_layer_norm): LayerNorm((1024,), eps=1e-05, elementwise_affine=True)
[ INFO : 2024-09-25 10:45:00,024 ] -               )
[ INFO : 2024-09-25 10:45:00,024 ] -             )
[ INFO : 2024-09-25 10:45:00,024 ] -             (layer_norm): LayerNorm((1024,), eps=1e-05, elementwise_affine=True)
[ INFO : 2024-09-25 10:45:00,024 ] -           )
[ INFO : 2024-09-25 10:45:00,024 ] -           (layer_norm): LayerNorm((512,), eps=1e-05, elementwise_affine=True)
[ INFO : 2024-09-25 10:45:00,024 ] -         )
[ INFO : 2024-09-25 10:45:00,024 ] -       )
[ INFO : 2024-09-25 10:45:00,024 ] -     )
[ INFO : 2024-09-25 10:45:00,024 ] -     (featurizer): Featurizer()
[ INFO : 2024-09-25 10:45:00,024 ] -   )
[ INFO : 2024-09-25 10:45:00,024 ] -   (projection): ArcMarginProduct_intertopk_subcenter(in_features=192, out_features=17982, scale=32.0, margin=0.0, easy_margin=False,K=3, mp=0.06, k_top=5, do_lm=False)
…
